ADNTrain(
  (model_g): ADN(
    (encoder_low): SegFormer(
      (backbone): mit_b5(
        (patch_embed1): OverlapPatchEmbed(
          (proj): Conv2d(4, 64, kernel_size=(7, 7), stride=(4, 4), padding=(3, 3))
          (norm): LayerNorm((64,), eps=1e-05, elementwise_affine=True)
        )
        (block1): ModuleList(
          (0): Block(
            (norm1): LayerNorm((64,), eps=1e-06, elementwise_affine=True)
            (attn): Attention(
              (q): Linear(in_features=64, out_features=64, bias=True)
              (sr): Conv2d(64, 64, kernel_size=(8, 8), stride=(8, 8))
              (norm): LayerNorm((64,), eps=1e-05, elementwise_affine=True)
              (kv): Linear(in_features=64, out_features=128, bias=True)
              (attn_drop): Dropout(p=0.0, inplace=False)
              (proj): Linear(in_features=64, out_features=64, bias=True)
              (proj_drop): Dropout(p=0.0, inplace=False)
            )
            (norm2): LayerNorm((64,), eps=1e-06, elementwise_affine=True)
            (mlp): Mlp(
              (fc1): Linear(in_features=64, out_features=256, bias=True)
              (dwconv): DWConv(
                (dwconv): Conv2d(256, 256, kernel_size=(3, 3), stride=(1, 1), padding=(1, 1), groups=256)
              )
              (act): GELU()
              (fc2): Linear(in_features=256, out_features=64, bias=True)
              (drop): Dropout(p=0.0, inplace=False)
            )
            (drop_path): Identity()
          )
          (1): Block(
            (norm1): LayerNorm((64,), eps=1e-06, elementwise_affine=True)
            (attn): Attention(
              (q): Linear(in_features=64, out_features=64, bias=True)
              (sr): Conv2d(64, 64, kernel_size=(8, 8), stride=(8, 8))
              (norm): LayerNorm((64,), eps=1e-05, elementwise_affine=True)
              (kv): Linear(in_features=64, out_features=128, bias=True)
              (attn_drop): Dropout(p=0.0, inplace=False)
              (proj): Linear(in_features=64, out_features=64, bias=True)
              (proj_drop): Dropout(p=0.0, inplace=False)
            )
            (norm2): LayerNorm((64,), eps=1e-06, elementwise_affine=True)
            (mlp): Mlp(
              (fc1): Linear(in_features=64, out_features=256, bias=True)
              (dwconv): DWConv(
                (dwconv): Conv2d(256, 256, kernel_size=(3, 3), stride=(1, 1), padding=(1, 1), groups=256)
              )
              (act): GELU()
              (fc2): Linear(in_features=256, out_features=64, bias=True)
              (drop): Dropout(p=0.0, inplace=False)
            )
            (drop_path): DropPath()
          )
          (2): Block(
            (norm1): LayerNorm((64,), eps=1e-06, elementwise_affine=True)
            (attn): Attention(
              (q): Linear(in_features=64, out_features=64, bias=True)
              (sr): Conv2d(64, 64, kernel_size=(8, 8), stride=(8, 8))
              (norm): LayerNorm((64,), eps=1e-05, elementwise_affine=True)
              (kv): Linear(in_features=64, out_features=128, bias=True)
              (attn_drop): Dropout(p=0.0, inplace=False)
              (proj): Linear(in_features=64, out_features=64, bias=True)
              (proj_drop): Dropout(p=0.0, inplace=False)
            )
            (norm2): LayerNorm((64,), eps=1e-06, elementwise_affine=True)
            (mlp): Mlp(
              (fc1): Linear(in_features=64, out_features=256, bias=True)
              (dwconv): DWConv(
                (dwconv): Conv2d(256, 256, kernel_size=(3, 3), stride=(1, 1), padding=(1, 1), groups=256)
              )
              (act): GELU()
              (fc2): Linear(in_features=256, out_features=64, bias=True)
              (drop): Dropout(p=0.0, inplace=False)
            )
            (drop_path): DropPath()
          )
        )
        (norm1): LayerNorm((64,), eps=1e-06, elementwise_affine=True)
        (patch_embed2): OverlapPatchEmbed(
          (proj): Conv2d(64, 128, kernel_size=(3, 3), stride=(2, 2), padding=(1, 1))
          (norm): LayerNorm((128,), eps=1e-05, elementwise_affine=True)
        )
        (block2): ModuleList(
          (0): Block(
            (norm1): LayerNorm((128,), eps=1e-06, elementwise_affine=True)
            (attn): Attention(
              (q): Linear(in_features=128, out_features=128, bias=True)
              (sr): Conv2d(128, 128, kernel_size=(4, 4), stride=(4, 4))
              (norm): LayerNorm((128,), eps=1e-05, elementwise_affine=True)
              (kv): Linear(in_features=128, out_features=256, bias=True)
              (attn_drop): Dropout(p=0.0, inplace=False)
              (proj): Linear(in_features=128, out_features=128, bias=True)
              (proj_drop): Dropout(p=0.0, inplace=False)
            )
            (norm2): LayerNorm((128,), eps=1e-06, elementwise_affine=True)
            (mlp): Mlp(
              (fc1): Linear(in_features=128, out_features=512, bias=True)
              (dwconv): DWConv(
                (dwconv): Conv2d(512, 512, kernel_size=(3, 3), stride=(1, 1), padding=(1, 1), groups=512)
              )
              (act): GELU()
              (fc2): Linear(in_features=512, out_features=128, bias=True)
              (drop): Dropout(p=0.0, inplace=False)
            )
            (drop_path): DropPath()
          )
          (1): Block(
            (norm1): LayerNorm((128,), eps=1e-06, elementwise_affine=True)
            (attn): Attention(
              (q): Linear(in_features=128, out_features=128, bias=True)
              (sr): Conv2d(128, 128, kernel_size=(4, 4), stride=(4, 4))
              (norm): LayerNorm((128,), eps=1e-05, elementwise_affine=True)
              (kv): Linear(in_features=128, out_features=256, bias=True)
              (attn_drop): Dropout(p=0.0, inplace=False)
              (proj): Linear(in_features=128, out_features=128, bias=True)
              (proj_drop): Dropout(p=0.0, inplace=False)
            )
            (norm2): LayerNorm((128,), eps=1e-06, elementwise_affine=True)
            (mlp): Mlp(
              (fc1): Linear(in_features=128, out_features=512, bias=True)
              (dwconv): DWConv(
                (dwconv): Conv2d(512, 512, kernel_size=(3, 3), stride=(1, 1), padding=(1, 1), groups=512)
              )
              (act): GELU()
              (fc2): Linear(in_features=512, out_features=128, bias=True)
              (drop): Dropout(p=0.0, inplace=False)
            )
            (drop_path): DropPath()
          )
          (2): Block(
            (norm1): LayerNorm((128,), eps=1e-06, elementwise_affine=True)
            (attn): Attention(
              (q): Linear(in_features=128, out_features=128, bias=True)
              (sr): Conv2d(128, 128, kernel_size=(4, 4), stride=(4, 4))
              (norm): LayerNorm((128,), eps=1e-05, elementwise_affine=True)
              (kv): Linear(in_features=128, out_features=256, bias=True)
              (attn_drop): Dropout(p=0.0, inplace=False)
              (proj): Linear(in_features=128, out_features=128, bias=True)
              (proj_drop): Dropout(p=0.0, inplace=False)
            )
            (norm2): LayerNorm((128,), eps=1e-06, elementwise_affine=True)
            (mlp): Mlp(
              (fc1): Linear(in_features=128, out_features=512, bias=True)
              (dwconv): DWConv(
                (dwconv): Conv2d(512, 512, kernel_size=(3, 3), stride=(1, 1), padding=(1, 1), groups=512)
              )
              (act): GELU()
              (fc2): Linear(in_features=512, out_features=128, bias=True)
              (drop): Dropout(p=0.0, inplace=False)
            )
            (drop_path): DropPath()
          )
          (3): Block(
            (norm1): LayerNorm((128,), eps=1e-06, elementwise_affine=True)
            (attn): Attention(
              (q): Linear(in_features=128, out_features=128, bias=True)
              (sr): Conv2d(128, 128, kernel_size=(4, 4), stride=(4, 4))
              (norm): LayerNorm((128,), eps=1e-05, elementwise_affine=True)
              (kv): Linear(in_features=128, out_features=256, bias=True)
              (attn_drop): Dropout(p=0.0, inplace=False)
              (proj): Linear(in_features=128, out_features=128, bias=True)
              (proj_drop): Dropout(p=0.0, inplace=False)
            )
            (norm2): LayerNorm((128,), eps=1e-06, elementwise_affine=True)
            (mlp): Mlp(
              (fc1): Linear(in_features=128, out_features=512, bias=True)
              (dwconv): DWConv(
                (dwconv): Conv2d(512, 512, kernel_size=(3, 3), stride=(1, 1), padding=(1, 1), groups=512)
              )
              (act): GELU()
              (fc2): Linear(in_features=512, out_features=128, bias=True)
              (drop): Dropout(p=0.0, inplace=False)
            )
            (drop_path): DropPath()
          )
          (4): Block(
            (norm1): LayerNorm((128,), eps=1e-06, elementwise_affine=True)
            (attn): Attention(
              (q): Linear(in_features=128, out_features=128, bias=True)
              (sr): Conv2d(128, 128, kernel_size=(4, 4), stride=(4, 4))
              (norm): LayerNorm((128,), eps=1e-05, elementwise_affine=True)
              (kv): Linear(in_features=128, out_features=256, bias=True)
              (attn_drop): Dropout(p=0.0, inplace=False)
              (proj): Linear(in_features=128, out_features=128, bias=True)
              (proj_drop): Dropout(p=0.0, inplace=False)
            )
            (norm2): LayerNorm((128,), eps=1e-06, elementwise_affine=True)
            (mlp): Mlp(
              (fc1): Linear(in_features=128, out_features=512, bias=True)
              (dwconv): DWConv(
                (dwconv): Conv2d(512, 512, kernel_size=(3, 3), stride=(1, 1), padding=(1, 1), groups=512)
              )
              (act): GELU()
              (fc2): Linear(in_features=512, out_features=128, bias=True)
              (drop): Dropout(p=0.0, inplace=False)
            )
            (drop_path): DropPath()
          )
          (5): Block(
            (norm1): LayerNorm((128,), eps=1e-06, elementwise_affine=True)
            (attn): Attention(
              (q): Linear(in_features=128, out_features=128, bias=True)
              (sr): Conv2d(128, 128, kernel_size=(4, 4), stride=(4, 4))
              (norm): LayerNorm((128,), eps=1e-05, elementwise_affine=True)
              (kv): Linear(in_features=128, out_features=256, bias=True)
              (attn_drop): Dropout(p=0.0, inplace=False)
              (proj): Linear(in_features=128, out_features=128, bias=True)
              (proj_drop): Dropout(p=0.0, inplace=False)
            )
            (norm2): LayerNorm((128,), eps=1e-06, elementwise_affine=True)
            (mlp): Mlp(
              (fc1): Linear(in_features=128, out_features=512, bias=True)
              (dwconv): DWConv(
                (dwconv): Conv2d(512, 512, kernel_size=(3, 3), stride=(1, 1), padding=(1, 1), groups=512)
              )
              (act): GELU()
              (fc2): Linear(in_features=512, out_features=128, bias=True)
              (drop): Dropout(p=0.0, inplace=False)
            )
            (drop_path): DropPath()
          )
        )
        (norm2): LayerNorm((128,), eps=1e-06, elementwise_affine=True)
        (patch_embed3): OverlapPatchEmbed(
          (proj): Conv2d(128, 320, kernel_size=(3, 3), stride=(2, 2), padding=(1, 1))
          (norm): LayerNorm((320,), eps=1e-05, elementwise_affine=True)
        )
        (block3): ModuleList(
          (0): Block(
            (norm1): LayerNorm((320,), eps=1e-06, elementwise_affine=True)
            (attn): Attention(
              (q): Linear(in_features=320, out_features=320, bias=True)
              (sr): Conv2d(320, 320, kernel_size=(2, 2), stride=(2, 2))
              (norm): LayerNorm((320,), eps=1e-05, elementwise_affine=True)
              (kv): Linear(in_features=320, out_features=640, bias=True)
              (attn_drop): Dropout(p=0.0, inplace=False)
              (proj): Linear(in_features=320, out_features=320, bias=True)
              (proj_drop): Dropout(p=0.0, inplace=False)
            )
            (norm2): LayerNorm((320,), eps=1e-06, elementwise_affine=True)
            (mlp): Mlp(
              (fc1): Linear(in_features=320, out_features=1280, bias=True)
              (dwconv): DWConv(
                (dwconv): Conv2d(1280, 1280, kernel_size=(3, 3), stride=(1, 1), padding=(1, 1), groups=1280)
              )
              (act): GELU()
              (fc2): Linear(in_features=1280, out_features=320, bias=True)
              (drop): Dropout(p=0.0, inplace=False)
            )
            (drop_path): DropPath()
          )
          (1): Block(
            (norm1): LayerNorm((320,), eps=1e-06, elementwise_affine=True)
            (attn): Attention(
              (q): Linear(in_features=320, out_features=320, bias=True)
              (sr): Conv2d(320, 320, kernel_size=(2, 2), stride=(2, 2))
              (norm): LayerNorm((320,), eps=1e-05, elementwise_affine=True)
              (kv): Linear(in_features=320, out_features=640, bias=True)
              (attn_drop): Dropout(p=0.0, inplace=False)
              (proj): Linear(in_features=320, out_features=320, bias=True)
              (proj_drop): Dropout(p=0.0, inplace=False)
            )
            (norm2): LayerNorm((320,), eps=1e-06, elementwise_affine=True)
            (mlp): Mlp(
              (fc1): Linear(in_features=320, out_features=1280, bias=True)
              (dwconv): DWConv(
                (dwconv): Conv2d(1280, 1280, kernel_size=(3, 3), stride=(1, 1), padding=(1, 1), groups=1280)
              )
              (act): GELU()
              (fc2): Linear(in_features=1280, out_features=320, bias=True)
              (drop): Dropout(p=0.0, inplace=False)
            )
            (drop_path): DropPath()
          )
          (2): Block(
            (norm1): LayerNorm((320,), eps=1e-06, elementwise_affine=True)
            (attn): Attention(
              (q): Linear(in_features=320, out_features=320, bias=True)
              (sr): Conv2d(320, 320, kernel_size=(2, 2), stride=(2, 2))
              (norm): LayerNorm((320,), eps=1e-05, elementwise_affine=True)
              (kv): Linear(in_features=320, out_features=640, bias=True)
              (attn_drop): Dropout(p=0.0, inplace=False)
              (proj): Linear(in_features=320, out_features=320, bias=True)
              (proj_drop): Dropout(p=0.0, inplace=False)
            )
            (norm2): LayerNorm((320,), eps=1e-06, elementwise_affine=True)
            (mlp): Mlp(
              (fc1): Linear(in_features=320, out_features=1280, bias=True)
              (dwconv): DWConv(
                (dwconv): Conv2d(1280, 1280, kernel_size=(3, 3), stride=(1, 1), padding=(1, 1), groups=1280)
              )
              (act): GELU()
              (fc2): Linear(in_features=1280, out_features=320, bias=True)
              (drop): Dropout(p=0.0, inplace=False)
            )
            (drop_path): DropPath()
          )
          (3): Block(
            (norm1): LayerNorm((320,), eps=1e-06, elementwise_affine=True)
            (attn): Attention(
              (q): Linear(in_features=320, out_features=320, bias=True)
              (sr): Conv2d(320, 320, kernel_size=(2, 2), stride=(2, 2))
              (norm): LayerNorm((320,), eps=1e-05, elementwise_affine=True)
              (kv): Linear(in_features=320, out_features=640, bias=True)
              (attn_drop): Dropout(p=0.0, inplace=False)
              (proj): Linear(in_features=320, out_features=320, bias=True)
              (proj_drop): Dropout(p=0.0, inplace=False)
            )
            (norm2): LayerNorm((320,), eps=1e-06, elementwise_affine=True)
            (mlp): Mlp(
              (fc1): Linear(in_features=320, out_features=1280, bias=True)
              (dwconv): DWConv(
                (dwconv): Conv2d(1280, 1280, kernel_size=(3, 3), stride=(1, 1), padding=(1, 1), groups=1280)
              )
              (act): GELU()
              (fc2): Linear(in_features=1280, out_features=320, bias=True)
              (drop): Dropout(p=0.0, inplace=False)
            )
            (drop_path): DropPath()
          )
          (4): Block(
            (norm1): LayerNorm((320,), eps=1e-06, elementwise_affine=True)
            (attn): Attention(
              (q): Linear(in_features=320, out_features=320, bias=True)
              (sr): Conv2d(320, 320, kernel_size=(2, 2), stride=(2, 2))
              (norm): LayerNorm((320,), eps=1e-05, elementwise_affine=True)
              (kv): Linear(in_features=320, out_features=640, bias=True)
              (attn_drop): Dropout(p=0.0, inplace=False)
              (proj): Linear(in_features=320, out_features=320, bias=True)
              (proj_drop): Dropout(p=0.0, inplace=False)
            )
            (norm2): LayerNorm((320,), eps=1e-06, elementwise_affine=True)
            (mlp): Mlp(
              (fc1): Linear(in_features=320, out_features=1280, bias=True)
              (dwconv): DWConv(
                (dwconv): Conv2d(1280, 1280, kernel_size=(3, 3), stride=(1, 1), padding=(1, 1), groups=1280)
              )
              (act): GELU()
              (fc2): Linear(in_features=1280, out_features=320, bias=True)
              (drop): Dropout(p=0.0, inplace=False)
            )
            (drop_path): DropPath()
          )
          (5): Block(
            (norm1): LayerNorm((320,), eps=1e-06, elementwise_affine=True)
            (attn): Attention(
              (q): Linear(in_features=320, out_features=320, bias=True)
              (sr): Conv2d(320, 320, kernel_size=(2, 2), stride=(2, 2))
              (norm): LayerNorm((320,), eps=1e-05, elementwise_affine=True)
              (kv): Linear(in_features=320, out_features=640, bias=True)
              (attn_drop): Dropout(p=0.0, inplace=False)
              (proj): Linear(in_features=320, out_features=320, bias=True)
              (proj_drop): Dropout(p=0.0, inplace=False)
            )
            (norm2): LayerNorm((320,), eps=1e-06, elementwise_affine=True)
            (mlp): Mlp(
              (fc1): Linear(in_features=320, out_features=1280, bias=True)
              (dwconv): DWConv(
                (dwconv): Conv2d(1280, 1280, kernel_size=(3, 3), stride=(1, 1), padding=(1, 1), groups=1280)
              )
              (act): GELU()
              (fc2): Linear(in_features=1280, out_features=320, bias=True)
              (drop): Dropout(p=0.0, inplace=False)
            )
            (drop_path): DropPath()
          )
          (6): Block(
            (norm1): LayerNorm((320,), eps=1e-06, elementwise_affine=True)
            (attn): Attention(
              (q): Linear(in_features=320, out_features=320, bias=True)
              (sr): Conv2d(320, 320, kernel_size=(2, 2), stride=(2, 2))
              (norm): LayerNorm((320,), eps=1e-05, elementwise_affine=True)
              (kv): Linear(in_features=320, out_features=640, bias=True)
              (attn_drop): Dropout(p=0.0, inplace=False)
              (proj): Linear(in_features=320, out_features=320, bias=True)
              (proj_drop): Dropout(p=0.0, inplace=False)
            )
            (norm2): LayerNorm((320,), eps=1e-06, elementwise_affine=True)
            (mlp): Mlp(
              (fc1): Linear(in_features=320, out_features=1280, bias=True)
              (dwconv): DWConv(
                (dwconv): Conv2d(1280, 1280, kernel_size=(3, 3), stride=(1, 1), padding=(1, 1), groups=1280)
              )
              (act): GELU()
              (fc2): Linear(in_features=1280, out_features=320, bias=True)
              (drop): Dropout(p=0.0, inplace=False)
            )
            (drop_path): DropPath()
          )
          (7): Block(
            (norm1): LayerNorm((320,), eps=1e-06, elementwise_affine=True)
            (attn): Attention(
              (q): Linear(in_features=320, out_features=320, bias=True)
              (sr): Conv2d(320, 320, kernel_size=(2, 2), stride=(2, 2))
              (norm): LayerNorm((320,), eps=1e-05, elementwise_affine=True)
              (kv): Linear(in_features=320, out_features=640, bias=True)
              (attn_drop): Dropout(p=0.0, inplace=False)
              (proj): Linear(in_features=320, out_features=320, bias=True)
              (proj_drop): Dropout(p=0.0, inplace=False)
            )
            (norm2): LayerNorm((320,), eps=1e-06, elementwise_affine=True)
            (mlp): Mlp(
              (fc1): Linear(in_features=320, out_features=1280, bias=True)
              (dwconv): DWConv(
                (dwconv): Conv2d(1280, 1280, kernel_size=(3, 3), stride=(1, 1), padding=(1, 1), groups=1280)
              )
              (act): GELU()
              (fc2): Linear(in_features=1280, out_features=320, bias=True)
              (drop): Dropout(p=0.0, inplace=False)
            )
            (drop_path): DropPath()
          )
          (8): Block(
            (norm1): LayerNorm((320,), eps=1e-06, elementwise_affine=True)
            (attn): Attention(
              (q): Linear(in_features=320, out_features=320, bias=True)
              (sr): Conv2d(320, 320, kernel_size=(2, 2), stride=(2, 2))
              (norm): LayerNorm((320,), eps=1e-05, elementwise_affine=True)
              (kv): Linear(in_features=320, out_features=640, bias=True)
              (attn_drop): Dropout(p=0.0, inplace=False)
              (proj): Linear(in_features=320, out_features=320, bias=True)
              (proj_drop): Dropout(p=0.0, inplace=False)
            )
            (norm2): LayerNorm((320,), eps=1e-06, elementwise_affine=True)
            (mlp): Mlp(
              (fc1): Linear(in_features=320, out_features=1280, bias=True)
              (dwconv): DWConv(
                (dwconv): Conv2d(1280, 1280, kernel_size=(3, 3), stride=(1, 1), padding=(1, 1), groups=1280)
              )
              (act): GELU()
              (fc2): Linear(in_features=1280, out_features=320, bias=True)
              (drop): Dropout(p=0.0, inplace=False)
            )
            (drop_path): DropPath()
          )
          (9): Block(
            (norm1): LayerNorm((320,), eps=1e-06, elementwise_affine=True)
            (attn): Attention(
              (q): Linear(in_features=320, out_features=320, bias=True)
              (sr): Conv2d(320, 320, kernel_size=(2, 2), stride=(2, 2))
              (norm): LayerNorm((320,), eps=1e-05, elementwise_affine=True)
              (kv): Linear(in_features=320, out_features=640, bias=True)
              (attn_drop): Dropout(p=0.0, inplace=False)
              (proj): Linear(in_features=320, out_features=320, bias=True)
              (proj_drop): Dropout(p=0.0, inplace=False)
            )
            (norm2): LayerNorm((320,), eps=1e-06, elementwise_affine=True)
            (mlp): Mlp(
              (fc1): Linear(in_features=320, out_features=1280, bias=True)
              (dwconv): DWConv(
                (dwconv): Conv2d(1280, 1280, kernel_size=(3, 3), stride=(1, 1), padding=(1, 1), groups=1280)
              )
              (act): GELU()
              (fc2): Linear(in_features=1280, out_features=320, bias=True)
              (drop): Dropout(p=0.0, inplace=False)
            )
            (drop_path): DropPath()
          )
          (10): Block(
            (norm1): LayerNorm((320,), eps=1e-06, elementwise_affine=True)
            (attn): Attention(
              (q): Linear(in_features=320, out_features=320, bias=True)
              (sr): Conv2d(320, 320, kernel_size=(2, 2), stride=(2, 2))
              (norm): LayerNorm((320,), eps=1e-05, elementwise_affine=True)
              (kv): Linear(in_features=320, out_features=640, bias=True)
              (attn_drop): Dropout(p=0.0, inplace=False)
              (proj): Linear(in_features=320, out_features=320, bias=True)
              (proj_drop): Dropout(p=0.0, inplace=False)
            )
            (norm2): LayerNorm((320,), eps=1e-06, elementwise_affine=True)
            (mlp): Mlp(
              (fc1): Linear(in_features=320, out_features=1280, bias=True)
              (dwconv): DWConv(
                (dwconv): Conv2d(1280, 1280, kernel_size=(3, 3), stride=(1, 1), padding=(1, 1), groups=1280)
              )
              (act): GELU()
              (fc2): Linear(in_features=1280, out_features=320, bias=True)
              (drop): Dropout(p=0.0, inplace=False)
            )
            (drop_path): DropPath()
          )
          (11): Block(
            (norm1): LayerNorm((320,), eps=1e-06, elementwise_affine=True)
            (attn): Attention(
              (q): Linear(in_features=320, out_features=320, bias=True)
              (sr): Conv2d(320, 320, kernel_size=(2, 2), stride=(2, 2))
              (norm): LayerNorm((320,), eps=1e-05, elementwise_affine=True)
              (kv): Linear(in_features=320, out_features=640, bias=True)
              (attn_drop): Dropout(p=0.0, inplace=False)
              (proj): Linear(in_features=320, out_features=320, bias=True)
              (proj_drop): Dropout(p=0.0, inplace=False)
            )
            (norm2): LayerNorm((320,), eps=1e-06, elementwise_affine=True)
            (mlp): Mlp(
              (fc1): Linear(in_features=320, out_features=1280, bias=True)
              (dwconv): DWConv(
                (dwconv): Conv2d(1280, 1280, kernel_size=(3, 3), stride=(1, 1), padding=(1, 1), groups=1280)
              )
              (act): GELU()
              (fc2): Linear(in_features=1280, out_features=320, bias=True)
              (drop): Dropout(p=0.0, inplace=False)
            )
            (drop_path): DropPath()
          )
          (12): Block(
            (norm1): LayerNorm((320,), eps=1e-06, elementwise_affine=True)
            (attn): Attention(
              (q): Linear(in_features=320, out_features=320, bias=True)
              (sr): Conv2d(320, 320, kernel_size=(2, 2), stride=(2, 2))
              (norm): LayerNorm((320,), eps=1e-05, elementwise_affine=True)
              (kv): Linear(in_features=320, out_features=640, bias=True)
              (attn_drop): Dropout(p=0.0, inplace=False)
              (proj): Linear(in_features=320, out_features=320, bias=True)
              (proj_drop): Dropout(p=0.0, inplace=False)
            )
            (norm2): LayerNorm((320,), eps=1e-06, elementwise_affine=True)
            (mlp): Mlp(
              (fc1): Linear(in_features=320, out_features=1280, bias=True)
              (dwconv): DWConv(
                (dwconv): Conv2d(1280, 1280, kernel_size=(3, 3), stride=(1, 1), padding=(1, 1), groups=1280)
              )
              (act): GELU()
              (fc2): Linear(in_features=1280, out_features=320, bias=True)
              (drop): Dropout(p=0.0, inplace=False)
            )
            (drop_path): DropPath()
          )
          (13): Block(
            (norm1): LayerNorm((320,), eps=1e-06, elementwise_affine=True)
            (attn): Attention(
              (q): Linear(in_features=320, out_features=320, bias=True)
              (sr): Conv2d(320, 320, kernel_size=(2, 2), stride=(2, 2))
              (norm): LayerNorm((320,), eps=1e-05, elementwise_affine=True)
              (kv): Linear(in_features=320, out_features=640, bias=True)
              (attn_drop): Dropout(p=0.0, inplace=False)
              (proj): Linear(in_features=320, out_features=320, bias=True)
              (proj_drop): Dropout(p=0.0, inplace=False)
            )
            (norm2): LayerNorm((320,), eps=1e-06, elementwise_affine=True)
            (mlp): Mlp(
              (fc1): Linear(in_features=320, out_features=1280, bias=True)
              (dwconv): DWConv(
                (dwconv): Conv2d(1280, 1280, kernel_size=(3, 3), stride=(1, 1), padding=(1, 1), groups=1280)
              )
              (act): GELU()
              (fc2): Linear(in_features=1280, out_features=320, bias=True)
              (drop): Dropout(p=0.0, inplace=False)
            )
            (drop_path): DropPath()
          )
          (14): Block(
            (norm1): LayerNorm((320,), eps=1e-06, elementwise_affine=True)
            (attn): Attention(
              (q): Linear(in_features=320, out_features=320, bias=True)
              (sr): Conv2d(320, 320, kernel_size=(2, 2), stride=(2, 2))
              (norm): LayerNorm((320,), eps=1e-05, elementwise_affine=True)
              (kv): Linear(in_features=320, out_features=640, bias=True)
              (attn_drop): Dropout(p=0.0, inplace=False)
              (proj): Linear(in_features=320, out_features=320, bias=True)
              (proj_drop): Dropout(p=0.0, inplace=False)
            )
            (norm2): LayerNorm((320,), eps=1e-06, elementwise_affine=True)
            (mlp): Mlp(
              (fc1): Linear(in_features=320, out_features=1280, bias=True)
              (dwconv): DWConv(
                (dwconv): Conv2d(1280, 1280, kernel_size=(3, 3), stride=(1, 1), padding=(1, 1), groups=1280)
              )
              (act): GELU()
              (fc2): Linear(in_features=1280, out_features=320, bias=True)
              (drop): Dropout(p=0.0, inplace=False)
            )
            (drop_path): DropPath()
          )
          (15): Block(
            (norm1): LayerNorm((320,), eps=1e-06, elementwise_affine=True)
            (attn): Attention(
              (q): Linear(in_features=320, out_features=320, bias=True)
              (sr): Conv2d(320, 320, kernel_size=(2, 2), stride=(2, 2))
              (norm): LayerNorm((320,), eps=1e-05, elementwise_affine=True)
              (kv): Linear(in_features=320, out_features=640, bias=True)
              (attn_drop): Dropout(p=0.0, inplace=False)
              (proj): Linear(in_features=320, out_features=320, bias=True)
              (proj_drop): Dropout(p=0.0, inplace=False)
            )
            (norm2): LayerNorm((320,), eps=1e-06, elementwise_affine=True)
            (mlp): Mlp(
              (fc1): Linear(in_features=320, out_features=1280, bias=True)
              (dwconv): DWConv(
                (dwconv): Conv2d(1280, 1280, kernel_size=(3, 3), stride=(1, 1), padding=(1, 1), groups=1280)
              )
              (act): GELU()
              (fc2): Linear(in_features=1280, out_features=320, bias=True)
              (drop): Dropout(p=0.0, inplace=False)
            )
            (drop_path): DropPath()
          )
          (16): Block(
            (norm1): LayerNorm((320,), eps=1e-06, elementwise_affine=True)
            (attn): Attention(
              (q): Linear(in_features=320, out_features=320, bias=True)
              (sr): Conv2d(320, 320, kernel_size=(2, 2), stride=(2, 2))
              (norm): LayerNorm((320,), eps=1e-05, elementwise_affine=True)
              (kv): Linear(in_features=320, out_features=640, bias=True)
              (attn_drop): Dropout(p=0.0, inplace=False)
              (proj): Linear(in_features=320, out_features=320, bias=True)
              (proj_drop): Dropout(p=0.0, inplace=False)
            )
            (norm2): LayerNorm((320,), eps=1e-06, elementwise_affine=True)
            (mlp): Mlp(
              (fc1): Linear(in_features=320, out_features=1280, bias=True)
              (dwconv): DWConv(
                (dwconv): Conv2d(1280, 1280, kernel_size=(3, 3), stride=(1, 1), padding=(1, 1), groups=1280)
              )
              (act): GELU()
              (fc2): Linear(in_features=1280, out_features=320, bias=True)
              (drop): Dropout(p=0.0, inplace=False)
            )
            (drop_path): DropPath()
          )
          (17): Block(
            (norm1): LayerNorm((320,), eps=1e-06, elementwise_affine=True)
            (attn): Attention(
              (q): Linear(in_features=320, out_features=320, bias=True)
              (sr): Conv2d(320, 320, kernel_size=(2, 2), stride=(2, 2))
              (norm): LayerNorm((320,), eps=1e-05, elementwise_affine=True)
              (kv): Linear(in_features=320, out_features=640, bias=True)
              (attn_drop): Dropout(p=0.0, inplace=False)
              (proj): Linear(in_features=320, out_features=320, bias=True)
              (proj_drop): Dropout(p=0.0, inplace=False)
            )
            (norm2): LayerNorm((320,), eps=1e-06, elementwise_affine=True)
            (mlp): Mlp(
              (fc1): Linear(in_features=320, out_features=1280, bias=True)
              (dwconv): DWConv(
                (dwconv): Conv2d(1280, 1280, kernel_size=(3, 3), stride=(1, 1), padding=(1, 1), groups=1280)
              )
              (act): GELU()
              (fc2): Linear(in_features=1280, out_features=320, bias=True)
              (drop): Dropout(p=0.0, inplace=False)
            )
            (drop_path): DropPath()
          )
          (18): Block(
            (norm1): LayerNorm((320,), eps=1e-06, elementwise_affine=True)
            (attn): Attention(
              (q): Linear(in_features=320, out_features=320, bias=True)
              (sr): Conv2d(320, 320, kernel_size=(2, 2), stride=(2, 2))
              (norm): LayerNorm((320,), eps=1e-05, elementwise_affine=True)
              (kv): Linear(in_features=320, out_features=640, bias=True)
              (attn_drop): Dropout(p=0.0, inplace=False)
              (proj): Linear(in_features=320, out_features=320, bias=True)
              (proj_drop): Dropout(p=0.0, inplace=False)
            )
            (norm2): LayerNorm((320,), eps=1e-06, elementwise_affine=True)
            (mlp): Mlp(
              (fc1): Linear(in_features=320, out_features=1280, bias=True)
              (dwconv): DWConv(
                (dwconv): Conv2d(1280, 1280, kernel_size=(3, 3), stride=(1, 1), padding=(1, 1), groups=1280)
              )
              (act): GELU()
              (fc2): Linear(in_features=1280, out_features=320, bias=True)
              (drop): Dropout(p=0.0, inplace=False)
            )
            (drop_path): DropPath()
          )
          (19): Block(
            (norm1): LayerNorm((320,), eps=1e-06, elementwise_affine=True)
            (attn): Attention(
              (q): Linear(in_features=320, out_features=320, bias=True)
              (sr): Conv2d(320, 320, kernel_size=(2, 2), stride=(2, 2))
              (norm): LayerNorm((320,), eps=1e-05, elementwise_affine=True)
              (kv): Linear(in_features=320, out_features=640, bias=True)
              (attn_drop): Dropout(p=0.0, inplace=False)
              (proj): Linear(in_features=320, out_features=320, bias=True)
              (proj_drop): Dropout(p=0.0, inplace=False)
            )
            (norm2): LayerNorm((320,), eps=1e-06, elementwise_affine=True)
            (mlp): Mlp(
              (fc1): Linear(in_features=320, out_features=1280, bias=True)
              (dwconv): DWConv(
                (dwconv): Conv2d(1280, 1280, kernel_size=(3, 3), stride=(1, 1), padding=(1, 1), groups=1280)
              )
              (act): GELU()
              (fc2): Linear(in_features=1280, out_features=320, bias=True)
              (drop): Dropout(p=0.0, inplace=False)
            )
            (drop_path): DropPath()
          )
          (20): Block(
            (norm1): LayerNorm((320,), eps=1e-06, elementwise_affine=True)
            (attn): Attention(
              (q): Linear(in_features=320, out_features=320, bias=True)
              (sr): Conv2d(320, 320, kernel_size=(2, 2), stride=(2, 2))
              (norm): LayerNorm((320,), eps=1e-05, elementwise_affine=True)
              (kv): Linear(in_features=320, out_features=640, bias=True)
              (attn_drop): Dropout(p=0.0, inplace=False)
              (proj): Linear(in_features=320, out_features=320, bias=True)
              (proj_drop): Dropout(p=0.0, inplace=False)
            )
            (norm2): LayerNorm((320,), eps=1e-06, elementwise_affine=True)
            (mlp): Mlp(
              (fc1): Linear(in_features=320, out_features=1280, bias=True)
              (dwconv): DWConv(
                (dwconv): Conv2d(1280, 1280, kernel_size=(3, 3), stride=(1, 1), padding=(1, 1), groups=1280)
              )
              (act): GELU()
              (fc2): Linear(in_features=1280, out_features=320, bias=True)
              (drop): Dropout(p=0.0, inplace=False)
            )
            (drop_path): DropPath()
          )
          (21): Block(
            (norm1): LayerNorm((320,), eps=1e-06, elementwise_affine=True)
            (attn): Attention(
              (q): Linear(in_features=320, out_features=320, bias=True)
              (sr): Conv2d(320, 320, kernel_size=(2, 2), stride=(2, 2))
              (norm): LayerNorm((320,), eps=1e-05, elementwise_affine=True)
              (kv): Linear(in_features=320, out_features=640, bias=True)
              (attn_drop): Dropout(p=0.0, inplace=False)
              (proj): Linear(in_features=320, out_features=320, bias=True)
              (proj_drop): Dropout(p=0.0, inplace=False)
            )
            (norm2): LayerNorm((320,), eps=1e-06, elementwise_affine=True)
            (mlp): Mlp(
              (fc1): Linear(in_features=320, out_features=1280, bias=True)
              (dwconv): DWConv(
                (dwconv): Conv2d(1280, 1280, kernel_size=(3, 3), stride=(1, 1), padding=(1, 1), groups=1280)
              )
              (act): GELU()
              (fc2): Linear(in_features=1280, out_features=320, bias=True)
              (drop): Dropout(p=0.0, inplace=False)
            )
            (drop_path): DropPath()
          )
          (22): Block(
            (norm1): LayerNorm((320,), eps=1e-06, elementwise_affine=True)
            (attn): Attention(
              (q): Linear(in_features=320, out_features=320, bias=True)
              (sr): Conv2d(320, 320, kernel_size=(2, 2), stride=(2, 2))
              (norm): LayerNorm((320,), eps=1e-05, elementwise_affine=True)
              (kv): Linear(in_features=320, out_features=640, bias=True)
              (attn_drop): Dropout(p=0.0, inplace=False)
              (proj): Linear(in_features=320, out_features=320, bias=True)
              (proj_drop): Dropout(p=0.0, inplace=False)
            )
            (norm2): LayerNorm((320,), eps=1e-06, elementwise_affine=True)
            (mlp): Mlp(
              (fc1): Linear(in_features=320, out_features=1280, bias=True)
              (dwconv): DWConv(
                (dwconv): Conv2d(1280, 1280, kernel_size=(3, 3), stride=(1, 1), padding=(1, 1), groups=1280)
              )
              (act): GELU()
              (fc2): Linear(in_features=1280, out_features=320, bias=True)
              (drop): Dropout(p=0.0, inplace=False)
            )
            (drop_path): DropPath()
          )
          (23): Block(
            (norm1): LayerNorm((320,), eps=1e-06, elementwise_affine=True)
            (attn): Attention(
              (q): Linear(in_features=320, out_features=320, bias=True)
              (sr): Conv2d(320, 320, kernel_size=(2, 2), stride=(2, 2))
              (norm): LayerNorm((320,), eps=1e-05, elementwise_affine=True)
              (kv): Linear(in_features=320, out_features=640, bias=True)
              (attn_drop): Dropout(p=0.0, inplace=False)
              (proj): Linear(in_features=320, out_features=320, bias=True)
              (proj_drop): Dropout(p=0.0, inplace=False)
            )
            (norm2): LayerNorm((320,), eps=1e-06, elementwise_affine=True)
            (mlp): Mlp(
              (fc1): Linear(in_features=320, out_features=1280, bias=True)
              (dwconv): DWConv(
                (dwconv): Conv2d(1280, 1280, kernel_size=(3, 3), stride=(1, 1), padding=(1, 1), groups=1280)
              )
              (act): GELU()
              (fc2): Linear(in_features=1280, out_features=320, bias=True)
              (drop): Dropout(p=0.0, inplace=False)
            )
            (drop_path): DropPath()
          )
          (24): Block(
            (norm1): LayerNorm((320,), eps=1e-06, elementwise_affine=True)
            (attn): Attention(
              (q): Linear(in_features=320, out_features=320, bias=True)
              (sr): Conv2d(320, 320, kernel_size=(2, 2), stride=(2, 2))
              (norm): LayerNorm((320,), eps=1e-05, elementwise_affine=True)
              (kv): Linear(in_features=320, out_features=640, bias=True)
              (attn_drop): Dropout(p=0.0, inplace=False)
              (proj): Linear(in_features=320, out_features=320, bias=True)
              (proj_drop): Dropout(p=0.0, inplace=False)
            )
            (norm2): LayerNorm((320,), eps=1e-06, elementwise_affine=True)
            (mlp): Mlp(
              (fc1): Linear(in_features=320, out_features=1280, bias=True)
              (dwconv): DWConv(
                (dwconv): Conv2d(1280, 1280, kernel_size=(3, 3), stride=(1, 1), padding=(1, 1), groups=1280)
              )
              (act): GELU()
              (fc2): Linear(in_features=1280, out_features=320, bias=True)
              (drop): Dropout(p=0.0, inplace=False)
            )
            (drop_path): DropPath()
          )
          (25): Block(
            (norm1): LayerNorm((320,), eps=1e-06, elementwise_affine=True)
            (attn): Attention(
              (q): Linear(in_features=320, out_features=320, bias=True)
              (sr): Conv2d(320, 320, kernel_size=(2, 2), stride=(2, 2))
              (norm): LayerNorm((320,), eps=1e-05, elementwise_affine=True)
              (kv): Linear(in_features=320, out_features=640, bias=True)
              (attn_drop): Dropout(p=0.0, inplace=False)
              (proj): Linear(in_features=320, out_features=320, bias=True)
              (proj_drop): Dropout(p=0.0, inplace=False)
            )
            (norm2): LayerNorm((320,), eps=1e-06, elementwise_affine=True)
            (mlp): Mlp(
              (fc1): Linear(in_features=320, out_features=1280, bias=True)
              (dwconv): DWConv(
                (dwconv): Conv2d(1280, 1280, kernel_size=(3, 3), stride=(1, 1), padding=(1, 1), groups=1280)
              )
              (act): GELU()
              (fc2): Linear(in_features=1280, out_features=320, bias=True)
              (drop): Dropout(p=0.0, inplace=False)
            )
            (drop_path): DropPath()
          )
          (26): Block(
            (norm1): LayerNorm((320,), eps=1e-06, elementwise_affine=True)
            (attn): Attention(
              (q): Linear(in_features=320, out_features=320, bias=True)
              (sr): Conv2d(320, 320, kernel_size=(2, 2), stride=(2, 2))
              (norm): LayerNorm((320,), eps=1e-05, elementwise_affine=True)
              (kv): Linear(in_features=320, out_features=640, bias=True)
              (attn_drop): Dropout(p=0.0, inplace=False)
              (proj): Linear(in_features=320, out_features=320, bias=True)
              (proj_drop): Dropout(p=0.0, inplace=False)
            )
            (norm2): LayerNorm((320,), eps=1e-06, elementwise_affine=True)
            (mlp): Mlp(
              (fc1): Linear(in_features=320, out_features=1280, bias=True)
              (dwconv): DWConv(
                (dwconv): Conv2d(1280, 1280, kernel_size=(3, 3), stride=(1, 1), padding=(1, 1), groups=1280)
              )
              (act): GELU()
              (fc2): Linear(in_features=1280, out_features=320, bias=True)
              (drop): Dropout(p=0.0, inplace=False)
            )
            (drop_path): DropPath()
          )
          (27): Block(
            (norm1): LayerNorm((320,), eps=1e-06, elementwise_affine=True)
            (attn): Attention(
              (q): Linear(in_features=320, out_features=320, bias=True)
              (sr): Conv2d(320, 320, kernel_size=(2, 2), stride=(2, 2))
              (norm): LayerNorm((320,), eps=1e-05, elementwise_affine=True)
              (kv): Linear(in_features=320, out_features=640, bias=True)
              (attn_drop): Dropout(p=0.0, inplace=False)
              (proj): Linear(in_features=320, out_features=320, bias=True)
              (proj_drop): Dropout(p=0.0, inplace=False)
            )
            (norm2): LayerNorm((320,), eps=1e-06, elementwise_affine=True)
            (mlp): Mlp(
              (fc1): Linear(in_features=320, out_features=1280, bias=True)
              (dwconv): DWConv(
                (dwconv): Conv2d(1280, 1280, kernel_size=(3, 3), stride=(1, 1), padding=(1, 1), groups=1280)
              )
              (act): GELU()
              (fc2): Linear(in_features=1280, out_features=320, bias=True)
              (drop): Dropout(p=0.0, inplace=False)
            )
            (drop_path): DropPath()
          )
          (28): Block(
            (norm1): LayerNorm((320,), eps=1e-06, elementwise_affine=True)
            (attn): Attention(
              (q): Linear(in_features=320, out_features=320, bias=True)
              (sr): Conv2d(320, 320, kernel_size=(2, 2), stride=(2, 2))
              (norm): LayerNorm((320,), eps=1e-05, elementwise_affine=True)
              (kv): Linear(in_features=320, out_features=640, bias=True)
              (attn_drop): Dropout(p=0.0, inplace=False)
              (proj): Linear(in_features=320, out_features=320, bias=True)
              (proj_drop): Dropout(p=0.0, inplace=False)
            )
            (norm2): LayerNorm((320,), eps=1e-06, elementwise_affine=True)
            (mlp): Mlp(
              (fc1): Linear(in_features=320, out_features=1280, bias=True)
              (dwconv): DWConv(
                (dwconv): Conv2d(1280, 1280, kernel_size=(3, 3), stride=(1, 1), padding=(1, 1), groups=1280)
              )
              (act): GELU()
              (fc2): Linear(in_features=1280, out_features=320, bias=True)
              (drop): Dropout(p=0.0, inplace=False)
            )
            (drop_path): DropPath()
          )
          (29): Block(
            (norm1): LayerNorm((320,), eps=1e-06, elementwise_affine=True)
            (attn): Attention(
              (q): Linear(in_features=320, out_features=320, bias=True)
              (sr): Conv2d(320, 320, kernel_size=(2, 2), stride=(2, 2))
              (norm): LayerNorm((320,), eps=1e-05, elementwise_affine=True)
              (kv): Linear(in_features=320, out_features=640, bias=True)
              (attn_drop): Dropout(p=0.0, inplace=False)
              (proj): Linear(in_features=320, out_features=320, bias=True)
              (proj_drop): Dropout(p=0.0, inplace=False)
            )
            (norm2): LayerNorm((320,), eps=1e-06, elementwise_affine=True)
            (mlp): Mlp(
              (fc1): Linear(in_features=320, out_features=1280, bias=True)
              (dwconv): DWConv(
                (dwconv): Conv2d(1280, 1280, kernel_size=(3, 3), stride=(1, 1), padding=(1, 1), groups=1280)
              )
              (act): GELU()
              (fc2): Linear(in_features=1280, out_features=320, bias=True)
              (drop): Dropout(p=0.0, inplace=False)
            )
            (drop_path): DropPath()
          )
          (30): Block(
            (norm1): LayerNorm((320,), eps=1e-06, elementwise_affine=True)
            (attn): Attention(
              (q): Linear(in_features=320, out_features=320, bias=True)
              (sr): Conv2d(320, 320, kernel_size=(2, 2), stride=(2, 2))
              (norm): LayerNorm((320,), eps=1e-05, elementwise_affine=True)
              (kv): Linear(in_features=320, out_features=640, bias=True)
              (attn_drop): Dropout(p=0.0, inplace=False)
              (proj): Linear(in_features=320, out_features=320, bias=True)
              (proj_drop): Dropout(p=0.0, inplace=False)
            )
            (norm2): LayerNorm((320,), eps=1e-06, elementwise_affine=True)
            (mlp): Mlp(
              (fc1): Linear(in_features=320, out_features=1280, bias=True)
              (dwconv): DWConv(
                (dwconv): Conv2d(1280, 1280, kernel_size=(3, 3), stride=(1, 1), padding=(1, 1), groups=1280)
              )
              (act): GELU()
              (fc2): Linear(in_features=1280, out_features=320, bias=True)
              (drop): Dropout(p=0.0, inplace=False)
            )
            (drop_path): DropPath()
          )
          (31): Block(
            (norm1): LayerNorm((320,), eps=1e-06, elementwise_affine=True)
            (attn): Attention(
              (q): Linear(in_features=320, out_features=320, bias=True)
              (sr): Conv2d(320, 320, kernel_size=(2, 2), stride=(2, 2))
              (norm): LayerNorm((320,), eps=1e-05, elementwise_affine=True)
              (kv): Linear(in_features=320, out_features=640, bias=True)
              (attn_drop): Dropout(p=0.0, inplace=False)
              (proj): Linear(in_features=320, out_features=320, bias=True)
              (proj_drop): Dropout(p=0.0, inplace=False)
            )
            (norm2): LayerNorm((320,), eps=1e-06, elementwise_affine=True)
            (mlp): Mlp(
              (fc1): Linear(in_features=320, out_features=1280, bias=True)
              (dwconv): DWConv(
                (dwconv): Conv2d(1280, 1280, kernel_size=(3, 3), stride=(1, 1), padding=(1, 1), groups=1280)
              )
              (act): GELU()
              (fc2): Linear(in_features=1280, out_features=320, bias=True)
              (drop): Dropout(p=0.0, inplace=False)
            )
            (drop_path): DropPath()
          )
          (32): Block(
            (norm1): LayerNorm((320,), eps=1e-06, elementwise_affine=True)
            (attn): Attention(
              (q): Linear(in_features=320, out_features=320, bias=True)
              (sr): Conv2d(320, 320, kernel_size=(2, 2), stride=(2, 2))
              (norm): LayerNorm((320,), eps=1e-05, elementwise_affine=True)
              (kv): Linear(in_features=320, out_features=640, bias=True)
              (attn_drop): Dropout(p=0.0, inplace=False)
              (proj): Linear(in_features=320, out_features=320, bias=True)
              (proj_drop): Dropout(p=0.0, inplace=False)
            )
            (norm2): LayerNorm((320,), eps=1e-06, elementwise_affine=True)
            (mlp): Mlp(
              (fc1): Linear(in_features=320, out_features=1280, bias=True)
              (dwconv): DWConv(
                (dwconv): Conv2d(1280, 1280, kernel_size=(3, 3), stride=(1, 1), padding=(1, 1), groups=1280)
              )
              (act): GELU()
              (fc2): Linear(in_features=1280, out_features=320, bias=True)
              (drop): Dropout(p=0.0, inplace=False)
            )
            (drop_path): DropPath()
          )
          (33): Block(
            (norm1): LayerNorm((320,), eps=1e-06, elementwise_affine=True)
            (attn): Attention(
              (q): Linear(in_features=320, out_features=320, bias=True)
              (sr): Conv2d(320, 320, kernel_size=(2, 2), stride=(2, 2))
              (norm): LayerNorm((320,), eps=1e-05, elementwise_affine=True)
              (kv): Linear(in_features=320, out_features=640, bias=True)
              (attn_drop): Dropout(p=0.0, inplace=False)
              (proj): Linear(in_features=320, out_features=320, bias=True)
              (proj_drop): Dropout(p=0.0, inplace=False)
            )
            (norm2): LayerNorm((320,), eps=1e-06, elementwise_affine=True)
            (mlp): Mlp(
              (fc1): Linear(in_features=320, out_features=1280, bias=True)
              (dwconv): DWConv(
                (dwconv): Conv2d(1280, 1280, kernel_size=(3, 3), stride=(1, 1), padding=(1, 1), groups=1280)
              )
              (act): GELU()
              (fc2): Linear(in_features=1280, out_features=320, bias=True)
              (drop): Dropout(p=0.0, inplace=False)
            )
            (drop_path): DropPath()
          )
          (34): Block(
            (norm1): LayerNorm((320,), eps=1e-06, elementwise_affine=True)
            (attn): Attention(
              (q): Linear(in_features=320, out_features=320, bias=True)
              (sr): Conv2d(320, 320, kernel_size=(2, 2), stride=(2, 2))
              (norm): LayerNorm((320,), eps=1e-05, elementwise_affine=True)
              (kv): Linear(in_features=320, out_features=640, bias=True)
              (attn_drop): Dropout(p=0.0, inplace=False)
              (proj): Linear(in_features=320, out_features=320, bias=True)
              (proj_drop): Dropout(p=0.0, inplace=False)
            )
            (norm2): LayerNorm((320,), eps=1e-06, elementwise_affine=True)
            (mlp): Mlp(
              (fc1): Linear(in_features=320, out_features=1280, bias=True)
              (dwconv): DWConv(
                (dwconv): Conv2d(1280, 1280, kernel_size=(3, 3), stride=(1, 1), padding=(1, 1), groups=1280)
              )
              (act): GELU()
              (fc2): Linear(in_features=1280, out_features=320, bias=True)
              (drop): Dropout(p=0.0, inplace=False)
            )
            (drop_path): DropPath()
          )
          (35): Block(
            (norm1): LayerNorm((320,), eps=1e-06, elementwise_affine=True)
            (attn): Attention(
              (q): Linear(in_features=320, out_features=320, bias=True)
              (sr): Conv2d(320, 320, kernel_size=(2, 2), stride=(2, 2))
              (norm): LayerNorm((320,), eps=1e-05, elementwise_affine=True)
              (kv): Linear(in_features=320, out_features=640, bias=True)
              (attn_drop): Dropout(p=0.0, inplace=False)
              (proj): Linear(in_features=320, out_features=320, bias=True)
              (proj_drop): Dropout(p=0.0, inplace=False)
            )
            (norm2): LayerNorm((320,), eps=1e-06, elementwise_affine=True)
            (mlp): Mlp(
              (fc1): Linear(in_features=320, out_features=1280, bias=True)
              (dwconv): DWConv(
                (dwconv): Conv2d(1280, 1280, kernel_size=(3, 3), stride=(1, 1), padding=(1, 1), groups=1280)
              )
              (act): GELU()
              (fc2): Linear(in_features=1280, out_features=320, bias=True)
              (drop): Dropout(p=0.0, inplace=False)
            )
            (drop_path): DropPath()
          )
          (36): Block(
            (norm1): LayerNorm((320,), eps=1e-06, elementwise_affine=True)
            (attn): Attention(
              (q): Linear(in_features=320, out_features=320, bias=True)
              (sr): Conv2d(320, 320, kernel_size=(2, 2), stride=(2, 2))
              (norm): LayerNorm((320,), eps=1e-05, elementwise_affine=True)
              (kv): Linear(in_features=320, out_features=640, bias=True)
              (attn_drop): Dropout(p=0.0, inplace=False)
              (proj): Linear(in_features=320, out_features=320, bias=True)
              (proj_drop): Dropout(p=0.0, inplace=False)
            )
            (norm2): LayerNorm((320,), eps=1e-06, elementwise_affine=True)
            (mlp): Mlp(
              (fc1): Linear(in_features=320, out_features=1280, bias=True)
              (dwconv): DWConv(
                (dwconv): Conv2d(1280, 1280, kernel_size=(3, 3), stride=(1, 1), padding=(1, 1), groups=1280)
              )
              (act): GELU()
              (fc2): Linear(in_features=1280, out_features=320, bias=True)
              (drop): Dropout(p=0.0, inplace=False)
            )
            (drop_path): DropPath()
          )
          (37): Block(
            (norm1): LayerNorm((320,), eps=1e-06, elementwise_affine=True)
            (attn): Attention(
              (q): Linear(in_features=320, out_features=320, bias=True)
              (sr): Conv2d(320, 320, kernel_size=(2, 2), stride=(2, 2))
              (norm): LayerNorm((320,), eps=1e-05, elementwise_affine=True)
              (kv): Linear(in_features=320, out_features=640, bias=True)
              (attn_drop): Dropout(p=0.0, inplace=False)
              (proj): Linear(in_features=320, out_features=320, bias=True)
              (proj_drop): Dropout(p=0.0, inplace=False)
            )
            (norm2): LayerNorm((320,), eps=1e-06, elementwise_affine=True)
            (mlp): Mlp(
              (fc1): Linear(in_features=320, out_features=1280, bias=True)
              (dwconv): DWConv(
                (dwconv): Conv2d(1280, 1280, kernel_size=(3, 3), stride=(1, 1), padding=(1, 1), groups=1280)
              )
              (act): GELU()
              (fc2): Linear(in_features=1280, out_features=320, bias=True)
              (drop): Dropout(p=0.0, inplace=False)
            )
            (drop_path): DropPath()
          )
          (38): Block(
            (norm1): LayerNorm((320,), eps=1e-06, elementwise_affine=True)
            (attn): Attention(
              (q): Linear(in_features=320, out_features=320, bias=True)
              (sr): Conv2d(320, 320, kernel_size=(2, 2), stride=(2, 2))
              (norm): LayerNorm((320,), eps=1e-05, elementwise_affine=True)
              (kv): Linear(in_features=320, out_features=640, bias=True)
              (attn_drop): Dropout(p=0.0, inplace=False)
              (proj): Linear(in_features=320, out_features=320, bias=True)
              (proj_drop): Dropout(p=0.0, inplace=False)
            )
            (norm2): LayerNorm((320,), eps=1e-06, elementwise_affine=True)
            (mlp): Mlp(
              (fc1): Linear(in_features=320, out_features=1280, bias=True)
              (dwconv): DWConv(
                (dwconv): Conv2d(1280, 1280, kernel_size=(3, 3), stride=(1, 1), padding=(1, 1), groups=1280)
              )
              (act): GELU()
              (fc2): Linear(in_features=1280, out_features=320, bias=True)
              (drop): Dropout(p=0.0, inplace=False)
            )
            (drop_path): DropPath()
          )
          (39): Block(
            (norm1): LayerNorm((320,), eps=1e-06, elementwise_affine=True)
            (attn): Attention(
              (q): Linear(in_features=320, out_features=320, bias=True)
              (sr): Conv2d(320, 320, kernel_size=(2, 2), stride=(2, 2))
              (norm): LayerNorm((320,), eps=1e-05, elementwise_affine=True)
              (kv): Linear(in_features=320, out_features=640, bias=True)
              (attn_drop): Dropout(p=0.0, inplace=False)
              (proj): Linear(in_features=320, out_features=320, bias=True)
              (proj_drop): Dropout(p=0.0, inplace=False)
            )
            (norm2): LayerNorm((320,), eps=1e-06, elementwise_affine=True)
            (mlp): Mlp(
              (fc1): Linear(in_features=320, out_features=1280, bias=True)
              (dwconv): DWConv(
                (dwconv): Conv2d(1280, 1280, kernel_size=(3, 3), stride=(1, 1), padding=(1, 1), groups=1280)
              )
              (act): GELU()
              (fc2): Linear(in_features=1280, out_features=320, bias=True)
              (drop): Dropout(p=0.0, inplace=False)
            )
            (drop_path): DropPath()
          )
        )
        (norm3): LayerNorm((320,), eps=1e-06, elementwise_affine=True)
        (patch_embed4): OverlapPatchEmbed(
          (proj): Conv2d(320, 512, kernel_size=(3, 3), stride=(2, 2), padding=(1, 1))
          (norm): LayerNorm((512,), eps=1e-05, elementwise_affine=True)
        )
        (block4): ModuleList(
          (0): Block(
            (norm1): LayerNorm((512,), eps=1e-06, elementwise_affine=True)
            (attn): Attention(
              (q): Linear(in_features=512, out_features=512, bias=True)
              (kv): Linear(in_features=512, out_features=1024, bias=True)
              (attn_drop): Dropout(p=0.0, inplace=False)
              (proj): Linear(in_features=512, out_features=512, bias=True)
              (proj_drop): Dropout(p=0.0, inplace=False)
            )
            (norm2): LayerNorm((512,), eps=1e-06, elementwise_affine=True)
            (mlp): Mlp(
              (fc1): Linear(in_features=512, out_features=2048, bias=True)
              (dwconv): DWConv(
                (dwconv): Conv2d(2048, 2048, kernel_size=(3, 3), stride=(1, 1), padding=(1, 1), groups=2048)
              )
              (act): GELU()
              (fc2): Linear(in_features=2048, out_features=512, bias=True)
              (drop): Dropout(p=0.0, inplace=False)
            )
            (drop_path): DropPath()
          )
          (1): Block(
            (norm1): LayerNorm((512,), eps=1e-06, elementwise_affine=True)
            (attn): Attention(
              (q): Linear(in_features=512, out_features=512, bias=True)
              (kv): Linear(in_features=512, out_features=1024, bias=True)
              (attn_drop): Dropout(p=0.0, inplace=False)
              (proj): Linear(in_features=512, out_features=512, bias=True)
              (proj_drop): Dropout(p=0.0, inplace=False)
            )
            (norm2): LayerNorm((512,), eps=1e-06, elementwise_affine=True)
            (mlp): Mlp(
              (fc1): Linear(in_features=512, out_features=2048, bias=True)
              (dwconv): DWConv(
                (dwconv): Conv2d(2048, 2048, kernel_size=(3, 3), stride=(1, 1), padding=(1, 1), groups=2048)
              )
              (act): GELU()
              (fc2): Linear(in_features=2048, out_features=512, bias=True)
              (drop): Dropout(p=0.0, inplace=False)
            )
            (drop_path): DropPath()
          )
          (2): Block(
            (norm1): LayerNorm((512,), eps=1e-06, elementwise_affine=True)
            (attn): Attention(
              (q): Linear(in_features=512, out_features=512, bias=True)
              (kv): Linear(in_features=512, out_features=1024, bias=True)
              (attn_drop): Dropout(p=0.0, inplace=False)
              (proj): Linear(in_features=512, out_features=512, bias=True)
              (proj_drop): Dropout(p=0.0, inplace=False)
            )
            (norm2): LayerNorm((512,), eps=1e-06, elementwise_affine=True)
            (mlp): Mlp(
              (fc1): Linear(in_features=512, out_features=2048, bias=True)
              (dwconv): DWConv(
                (dwconv): Conv2d(2048, 2048, kernel_size=(3, 3), stride=(1, 1), padding=(1, 1), groups=2048)
              )
              (act): GELU()
              (fc2): Linear(in_features=2048, out_features=512, bias=True)
              (drop): Dropout(p=0.0, inplace=False)
            )
            (drop_path): DropPath()
          )
        )
        (norm4): LayerNorm((512,), eps=1e-06, elementwise_affine=True)
        (conv1): Conv2d(64, 256, kernel_size=(1, 1), stride=(1, 1))
        (conv2): Conv2d(128, 256, kernel_size=(1, 1), stride=(1, 1))
        (conv3): Conv2d(320, 256, kernel_size=(1, 1), stride=(1, 1))
        (conv4): Conv2d(512, 256, kernel_size=(1, 1), stride=(1, 1))
      )
      (decode_head): SegFormerHead(
        (linear_c4): MLP(
          (proj): Linear(in_features=512, out_features=768, bias=True)
        )
        (linear_c3): MLP(
          (proj): Linear(in_features=320, out_features=768, bias=True)
        )
        (linear_c2): MLP(
          (proj): Linear(in_features=128, out_features=768, bias=True)
        )
        (linear_c1): MLP(
          (proj): Linear(in_features=64, out_features=768, bias=True)
        )
        (linear_fuse): ConvModule(
          (conv): Conv2d(3072, 768, kernel_size=(1, 1), stride=(1, 1), bias=False)
          (bn): BatchNorm2d(768, eps=0.001, momentum=0.03, affine=True, track_running_stats=True)
          (act): ReLU()
        )
        (linear_pred): Conv2d(768, 2, kernel_size=(1, 1), stride=(1, 1))
        (dropout): Dropout2d(p=0.1, inplace=False)
      )
      (convinput): Conv2d(1, 4, kernel_size=(1, 1), stride=(1, 1))
      (convout): Conv2d(2, 256, kernel_size=(1, 1), stride=(1, 1))
    )
    (encoder_high): SegFormer(
      (backbone): mit_b5(
        (patch_embed1): OverlapPatchEmbed(
          (proj): Conv2d(4, 64, kernel_size=(7, 7), stride=(4, 4), padding=(3, 3))
          (norm): LayerNorm((64,), eps=1e-05, elementwise_affine=True)
        )
        (block1): ModuleList(
          (0): Block(
            (norm1): LayerNorm((64,), eps=1e-06, elementwise_affine=True)
            (attn): Attention(
              (q): Linear(in_features=64, out_features=64, bias=True)
              (sr): Conv2d(64, 64, kernel_size=(8, 8), stride=(8, 8))
              (norm): LayerNorm((64,), eps=1e-05, elementwise_affine=True)
              (kv): Linear(in_features=64, out_features=128, bias=True)
              (attn_drop): Dropout(p=0.0, inplace=False)
              (proj): Linear(in_features=64, out_features=64, bias=True)
              (proj_drop): Dropout(p=0.0, inplace=False)
            )
            (norm2): LayerNorm((64,), eps=1e-06, elementwise_affine=True)
            (mlp): Mlp(
              (fc1): Linear(in_features=64, out_features=256, bias=True)
              (dwconv): DWConv(
                (dwconv): Conv2d(256, 256, kernel_size=(3, 3), stride=(1, 1), padding=(1, 1), groups=256)
              )
              (act): GELU()
              (fc2): Linear(in_features=256, out_features=64, bias=True)
              (drop): Dropout(p=0.0, inplace=False)
            )
            (drop_path): Identity()
          )
          (1): Block(
            (norm1): LayerNorm((64,), eps=1e-06, elementwise_affine=True)
            (attn): Attention(
              (q): Linear(in_features=64, out_features=64, bias=True)
              (sr): Conv2d(64, 64, kernel_size=(8, 8), stride=(8, 8))
              (norm): LayerNorm((64,), eps=1e-05, elementwise_affine=True)
              (kv): Linear(in_features=64, out_features=128, bias=True)
              (attn_drop): Dropout(p=0.0, inplace=False)
              (proj): Linear(in_features=64, out_features=64, bias=True)
              (proj_drop): Dropout(p=0.0, inplace=False)
            )
            (norm2): LayerNorm((64,), eps=1e-06, elementwise_affine=True)
            (mlp): Mlp(
              (fc1): Linear(in_features=64, out_features=256, bias=True)
              (dwconv): DWConv(
                (dwconv): Conv2d(256, 256, kernel_size=(3, 3), stride=(1, 1), padding=(1, 1), groups=256)
              )
              (act): GELU()
              (fc2): Linear(in_features=256, out_features=64, bias=True)
              (drop): Dropout(p=0.0, inplace=False)
            )
            (drop_path): DropPath()
          )
          (2): Block(
            (norm1): LayerNorm((64,), eps=1e-06, elementwise_affine=True)
            (attn): Attention(
              (q): Linear(in_features=64, out_features=64, bias=True)
              (sr): Conv2d(64, 64, kernel_size=(8, 8), stride=(8, 8))
              (norm): LayerNorm((64,), eps=1e-05, elementwise_affine=True)
              (kv): Linear(in_features=64, out_features=128, bias=True)
              (attn_drop): Dropout(p=0.0, inplace=False)
              (proj): Linear(in_features=64, out_features=64, bias=True)
              (proj_drop): Dropout(p=0.0, inplace=False)
            )
            (norm2): LayerNorm((64,), eps=1e-06, elementwise_affine=True)
            (mlp): Mlp(
              (fc1): Linear(in_features=64, out_features=256, bias=True)
              (dwconv): DWConv(
                (dwconv): Conv2d(256, 256, kernel_size=(3, 3), stride=(1, 1), padding=(1, 1), groups=256)
              )
              (act): GELU()
              (fc2): Linear(in_features=256, out_features=64, bias=True)
              (drop): Dropout(p=0.0, inplace=False)
            )
            (drop_path): DropPath()
          )
        )
        (norm1): LayerNorm((64,), eps=1e-06, elementwise_affine=True)
        (patch_embed2): OverlapPatchEmbed(
          (proj): Conv2d(64, 128, kernel_size=(3, 3), stride=(2, 2), padding=(1, 1))
          (norm): LayerNorm((128,), eps=1e-05, elementwise_affine=True)
        )
        (block2): ModuleList(
          (0): Block(
            (norm1): LayerNorm((128,), eps=1e-06, elementwise_affine=True)
            (attn): Attention(
              (q): Linear(in_features=128, out_features=128, bias=True)
              (sr): Conv2d(128, 128, kernel_size=(4, 4), stride=(4, 4))
              (norm): LayerNorm((128,), eps=1e-05, elementwise_affine=True)
              (kv): Linear(in_features=128, out_features=256, bias=True)
              (attn_drop): Dropout(p=0.0, inplace=False)
              (proj): Linear(in_features=128, out_features=128, bias=True)
              (proj_drop): Dropout(p=0.0, inplace=False)
            )
            (norm2): LayerNorm((128,), eps=1e-06, elementwise_affine=True)
            (mlp): Mlp(
              (fc1): Linear(in_features=128, out_features=512, bias=True)
              (dwconv): DWConv(
                (dwconv): Conv2d(512, 512, kernel_size=(3, 3), stride=(1, 1), padding=(1, 1), groups=512)
              )
              (act): GELU()
              (fc2): Linear(in_features=512, out_features=128, bias=True)
              (drop): Dropout(p=0.0, inplace=False)
            )
            (drop_path): DropPath()
          )
          (1): Block(
            (norm1): LayerNorm((128,), eps=1e-06, elementwise_affine=True)
            (attn): Attention(
              (q): Linear(in_features=128, out_features=128, bias=True)
              (sr): Conv2d(128, 128, kernel_size=(4, 4), stride=(4, 4))
              (norm): LayerNorm((128,), eps=1e-05, elementwise_affine=True)
              (kv): Linear(in_features=128, out_features=256, bias=True)
              (attn_drop): Dropout(p=0.0, inplace=False)
              (proj): Linear(in_features=128, out_features=128, bias=True)
              (proj_drop): Dropout(p=0.0, inplace=False)
            )
            (norm2): LayerNorm((128,), eps=1e-06, elementwise_affine=True)
            (mlp): Mlp(
              (fc1): Linear(in_features=128, out_features=512, bias=True)
              (dwconv): DWConv(
                (dwconv): Conv2d(512, 512, kernel_size=(3, 3), stride=(1, 1), padding=(1, 1), groups=512)
              )
              (act): GELU()
              (fc2): Linear(in_features=512, out_features=128, bias=True)
              (drop): Dropout(p=0.0, inplace=False)
            )
            (drop_path): DropPath()
          )
          (2): Block(
            (norm1): LayerNorm((128,), eps=1e-06, elementwise_affine=True)
            (attn): Attention(
              (q): Linear(in_features=128, out_features=128, bias=True)
              (sr): Conv2d(128, 128, kernel_size=(4, 4), stride=(4, 4))
              (norm): LayerNorm((128,), eps=1e-05, elementwise_affine=True)
              (kv): Linear(in_features=128, out_features=256, bias=True)
              (attn_drop): Dropout(p=0.0, inplace=False)
              (proj): Linear(in_features=128, out_features=128, bias=True)
              (proj_drop): Dropout(p=0.0, inplace=False)
            )
            (norm2): LayerNorm((128,), eps=1e-06, elementwise_affine=True)
            (mlp): Mlp(
              (fc1): Linear(in_features=128, out_features=512, bias=True)
              (dwconv): DWConv(
                (dwconv): Conv2d(512, 512, kernel_size=(3, 3), stride=(1, 1), padding=(1, 1), groups=512)
              )
              (act): GELU()
              (fc2): Linear(in_features=512, out_features=128, bias=True)
              (drop): Dropout(p=0.0, inplace=False)
            )
            (drop_path): DropPath()
          )
          (3): Block(
            (norm1): LayerNorm((128,), eps=1e-06, elementwise_affine=True)
            (attn): Attention(
              (q): Linear(in_features=128, out_features=128, bias=True)
              (sr): Conv2d(128, 128, kernel_size=(4, 4), stride=(4, 4))
              (norm): LayerNorm((128,), eps=1e-05, elementwise_affine=True)
              (kv): Linear(in_features=128, out_features=256, bias=True)
              (attn_drop): Dropout(p=0.0, inplace=False)
              (proj): Linear(in_features=128, out_features=128, bias=True)
              (proj_drop): Dropout(p=0.0, inplace=False)
            )
            (norm2): LayerNorm((128,), eps=1e-06, elementwise_affine=True)
            (mlp): Mlp(
              (fc1): Linear(in_features=128, out_features=512, bias=True)
              (dwconv): DWConv(
                (dwconv): Conv2d(512, 512, kernel_size=(3, 3), stride=(1, 1), padding=(1, 1), groups=512)
              )
              (act): GELU()
              (fc2): Linear(in_features=512, out_features=128, bias=True)
              (drop): Dropout(p=0.0, inplace=False)
            )
            (drop_path): DropPath()
          )
          (4): Block(
            (norm1): LayerNorm((128,), eps=1e-06, elementwise_affine=True)
            (attn): Attention(
              (q): Linear(in_features=128, out_features=128, bias=True)
              (sr): Conv2d(128, 128, kernel_size=(4, 4), stride=(4, 4))
              (norm): LayerNorm((128,), eps=1e-05, elementwise_affine=True)
              (kv): Linear(in_features=128, out_features=256, bias=True)
              (attn_drop): Dropout(p=0.0, inplace=False)
              (proj): Linear(in_features=128, out_features=128, bias=True)
              (proj_drop): Dropout(p=0.0, inplace=False)
            )
            (norm2): LayerNorm((128,), eps=1e-06, elementwise_affine=True)
            (mlp): Mlp(
              (fc1): Linear(in_features=128, out_features=512, bias=True)
              (dwconv): DWConv(
                (dwconv): Conv2d(512, 512, kernel_size=(3, 3), stride=(1, 1), padding=(1, 1), groups=512)
              )
              (act): GELU()
              (fc2): Linear(in_features=512, out_features=128, bias=True)
              (drop): Dropout(p=0.0, inplace=False)
            )
            (drop_path): DropPath()
          )
          (5): Block(
            (norm1): LayerNorm((128,), eps=1e-06, elementwise_affine=True)
            (attn): Attention(
              (q): Linear(in_features=128, out_features=128, bias=True)
              (sr): Conv2d(128, 128, kernel_size=(4, 4), stride=(4, 4))
              (norm): LayerNorm((128,), eps=1e-05, elementwise_affine=True)
              (kv): Linear(in_features=128, out_features=256, bias=True)
              (attn_drop): Dropout(p=0.0, inplace=False)
              (proj): Linear(in_features=128, out_features=128, bias=True)
              (proj_drop): Dropout(p=0.0, inplace=False)
            )
            (norm2): LayerNorm((128,), eps=1e-06, elementwise_affine=True)
            (mlp): Mlp(
              (fc1): Linear(in_features=128, out_features=512, bias=True)
              (dwconv): DWConv(
                (dwconv): Conv2d(512, 512, kernel_size=(3, 3), stride=(1, 1), padding=(1, 1), groups=512)
              )
              (act): GELU()
              (fc2): Linear(in_features=512, out_features=128, bias=True)
              (drop): Dropout(p=0.0, inplace=False)
            )
            (drop_path): DropPath()
          )
        )
        (norm2): LayerNorm((128,), eps=1e-06, elementwise_affine=True)
        (patch_embed3): OverlapPatchEmbed(
          (proj): Conv2d(128, 320, kernel_size=(3, 3), stride=(2, 2), padding=(1, 1))
          (norm): LayerNorm((320,), eps=1e-05, elementwise_affine=True)
        )
        (block3): ModuleList(
          (0): Block(
            (norm1): LayerNorm((320,), eps=1e-06, elementwise_affine=True)
            (attn): Attention(
              (q): Linear(in_features=320, out_features=320, bias=True)
              (sr): Conv2d(320, 320, kernel_size=(2, 2), stride=(2, 2))
              (norm): LayerNorm((320,), eps=1e-05, elementwise_affine=True)
              (kv): Linear(in_features=320, out_features=640, bias=True)
              (attn_drop): Dropout(p=0.0, inplace=False)
              (proj): Linear(in_features=320, out_features=320, bias=True)
              (proj_drop): Dropout(p=0.0, inplace=False)
            )
            (norm2): LayerNorm((320,), eps=1e-06, elementwise_affine=True)
            (mlp): Mlp(
              (fc1): Linear(in_features=320, out_features=1280, bias=True)
              (dwconv): DWConv(
                (dwconv): Conv2d(1280, 1280, kernel_size=(3, 3), stride=(1, 1), padding=(1, 1), groups=1280)
              )
              (act): GELU()
              (fc2): Linear(in_features=1280, out_features=320, bias=True)
              (drop): Dropout(p=0.0, inplace=False)
            )
            (drop_path): DropPath()
          )
          (1): Block(
            (norm1): LayerNorm((320,), eps=1e-06, elementwise_affine=True)
            (attn): Attention(
              (q): Linear(in_features=320, out_features=320, bias=True)
              (sr): Conv2d(320, 320, kernel_size=(2, 2), stride=(2, 2))
              (norm): LayerNorm((320,), eps=1e-05, elementwise_affine=True)
              (kv): Linear(in_features=320, out_features=640, bias=True)
              (attn_drop): Dropout(p=0.0, inplace=False)
              (proj): Linear(in_features=320, out_features=320, bias=True)
              (proj_drop): Dropout(p=0.0, inplace=False)
            )
            (norm2): LayerNorm((320,), eps=1e-06, elementwise_affine=True)
            (mlp): Mlp(
              (fc1): Linear(in_features=320, out_features=1280, bias=True)
              (dwconv): DWConv(
                (dwconv): Conv2d(1280, 1280, kernel_size=(3, 3), stride=(1, 1), padding=(1, 1), groups=1280)
              )
              (act): GELU()
              (fc2): Linear(in_features=1280, out_features=320, bias=True)
              (drop): Dropout(p=0.0, inplace=False)
            )
            (drop_path): DropPath()
          )
          (2): Block(
            (norm1): LayerNorm((320,), eps=1e-06, elementwise_affine=True)
            (attn): Attention(
              (q): Linear(in_features=320, out_features=320, bias=True)
              (sr): Conv2d(320, 320, kernel_size=(2, 2), stride=(2, 2))
              (norm): LayerNorm((320,), eps=1e-05, elementwise_affine=True)
              (kv): Linear(in_features=320, out_features=640, bias=True)
              (attn_drop): Dropout(p=0.0, inplace=False)
              (proj): Linear(in_features=320, out_features=320, bias=True)
              (proj_drop): Dropout(p=0.0, inplace=False)
            )
            (norm2): LayerNorm((320,), eps=1e-06, elementwise_affine=True)
            (mlp): Mlp(
              (fc1): Linear(in_features=320, out_features=1280, bias=True)
              (dwconv): DWConv(
                (dwconv): Conv2d(1280, 1280, kernel_size=(3, 3), stride=(1, 1), padding=(1, 1), groups=1280)
              )
              (act): GELU()
              (fc2): Linear(in_features=1280, out_features=320, bias=True)
              (drop): Dropout(p=0.0, inplace=False)
            )
            (drop_path): DropPath()
          )
          (3): Block(
            (norm1): LayerNorm((320,), eps=1e-06, elementwise_affine=True)
            (attn): Attention(
              (q): Linear(in_features=320, out_features=320, bias=True)
              (sr): Conv2d(320, 320, kernel_size=(2, 2), stride=(2, 2))
              (norm): LayerNorm((320,), eps=1e-05, elementwise_affine=True)
              (kv): Linear(in_features=320, out_features=640, bias=True)
              (attn_drop): Dropout(p=0.0, inplace=False)
              (proj): Linear(in_features=320, out_features=320, bias=True)
              (proj_drop): Dropout(p=0.0, inplace=False)
            )
            (norm2): LayerNorm((320,), eps=1e-06, elementwise_affine=True)
            (mlp): Mlp(
              (fc1): Linear(in_features=320, out_features=1280, bias=True)
              (dwconv): DWConv(
                (dwconv): Conv2d(1280, 1280, kernel_size=(3, 3), stride=(1, 1), padding=(1, 1), groups=1280)
              )
              (act): GELU()
              (fc2): Linear(in_features=1280, out_features=320, bias=True)
              (drop): Dropout(p=0.0, inplace=False)
            )
            (drop_path): DropPath()
          )
          (4): Block(
            (norm1): LayerNorm((320,), eps=1e-06, elementwise_affine=True)
            (attn): Attention(
              (q): Linear(in_features=320, out_features=320, bias=True)
              (sr): Conv2d(320, 320, kernel_size=(2, 2), stride=(2, 2))
              (norm): LayerNorm((320,), eps=1e-05, elementwise_affine=True)
              (kv): Linear(in_features=320, out_features=640, bias=True)
              (attn_drop): Dropout(p=0.0, inplace=False)
              (proj): Linear(in_features=320, out_features=320, bias=True)
              (proj_drop): Dropout(p=0.0, inplace=False)
            )
            (norm2): LayerNorm((320,), eps=1e-06, elementwise_affine=True)
            (mlp): Mlp(
              (fc1): Linear(in_features=320, out_features=1280, bias=True)
              (dwconv): DWConv(
                (dwconv): Conv2d(1280, 1280, kernel_size=(3, 3), stride=(1, 1), padding=(1, 1), groups=1280)
              )
              (act): GELU()
              (fc2): Linear(in_features=1280, out_features=320, bias=True)
              (drop): Dropout(p=0.0, inplace=False)
            )
            (drop_path): DropPath()
          )
          (5): Block(
            (norm1): LayerNorm((320,), eps=1e-06, elementwise_affine=True)
            (attn): Attention(
              (q): Linear(in_features=320, out_features=320, bias=True)
              (sr): Conv2d(320, 320, kernel_size=(2, 2), stride=(2, 2))
              (norm): LayerNorm((320,), eps=1e-05, elementwise_affine=True)
              (kv): Linear(in_features=320, out_features=640, bias=True)
              (attn_drop): Dropout(p=0.0, inplace=False)
              (proj): Linear(in_features=320, out_features=320, bias=True)
              (proj_drop): Dropout(p=0.0, inplace=False)
            )
            (norm2): LayerNorm((320,), eps=1e-06, elementwise_affine=True)
            (mlp): Mlp(
              (fc1): Linear(in_features=320, out_features=1280, bias=True)
              (dwconv): DWConv(
                (dwconv): Conv2d(1280, 1280, kernel_size=(3, 3), stride=(1, 1), padding=(1, 1), groups=1280)
              )
              (act): GELU()
              (fc2): Linear(in_features=1280, out_features=320, bias=True)
              (drop): Dropout(p=0.0, inplace=False)
            )
            (drop_path): DropPath()
          )
          (6): Block(
            (norm1): LayerNorm((320,), eps=1e-06, elementwise_affine=True)
            (attn): Attention(
              (q): Linear(in_features=320, out_features=320, bias=True)
              (sr): Conv2d(320, 320, kernel_size=(2, 2), stride=(2, 2))
              (norm): LayerNorm((320,), eps=1e-05, elementwise_affine=True)
              (kv): Linear(in_features=320, out_features=640, bias=True)
              (attn_drop): Dropout(p=0.0, inplace=False)
              (proj): Linear(in_features=320, out_features=320, bias=True)
              (proj_drop): Dropout(p=0.0, inplace=False)
            )
            (norm2): LayerNorm((320,), eps=1e-06, elementwise_affine=True)
            (mlp): Mlp(
              (fc1): Linear(in_features=320, out_features=1280, bias=True)
              (dwconv): DWConv(
                (dwconv): Conv2d(1280, 1280, kernel_size=(3, 3), stride=(1, 1), padding=(1, 1), groups=1280)
              )
              (act): GELU()
              (fc2): Linear(in_features=1280, out_features=320, bias=True)
              (drop): Dropout(p=0.0, inplace=False)
            )
            (drop_path): DropPath()
          )
          (7): Block(
            (norm1): LayerNorm((320,), eps=1e-06, elementwise_affine=True)
            (attn): Attention(
              (q): Linear(in_features=320, out_features=320, bias=True)
              (sr): Conv2d(320, 320, kernel_size=(2, 2), stride=(2, 2))
              (norm): LayerNorm((320,), eps=1e-05, elementwise_affine=True)
              (kv): Linear(in_features=320, out_features=640, bias=True)
              (attn_drop): Dropout(p=0.0, inplace=False)
              (proj): Linear(in_features=320, out_features=320, bias=True)
              (proj_drop): Dropout(p=0.0, inplace=False)
            )
            (norm2): LayerNorm((320,), eps=1e-06, elementwise_affine=True)
            (mlp): Mlp(
              (fc1): Linear(in_features=320, out_features=1280, bias=True)
              (dwconv): DWConv(
                (dwconv): Conv2d(1280, 1280, kernel_size=(3, 3), stride=(1, 1), padding=(1, 1), groups=1280)
              )
              (act): GELU()
              (fc2): Linear(in_features=1280, out_features=320, bias=True)
              (drop): Dropout(p=0.0, inplace=False)
            )
            (drop_path): DropPath()
          )
          (8): Block(
            (norm1): LayerNorm((320,), eps=1e-06, elementwise_affine=True)
            (attn): Attention(
              (q): Linear(in_features=320, out_features=320, bias=True)
              (sr): Conv2d(320, 320, kernel_size=(2, 2), stride=(2, 2))
              (norm): LayerNorm((320,), eps=1e-05, elementwise_affine=True)
              (kv): Linear(in_features=320, out_features=640, bias=True)
              (attn_drop): Dropout(p=0.0, inplace=False)
              (proj): Linear(in_features=320, out_features=320, bias=True)
              (proj_drop): Dropout(p=0.0, inplace=False)
            )
            (norm2): LayerNorm((320,), eps=1e-06, elementwise_affine=True)
            (mlp): Mlp(
              (fc1): Linear(in_features=320, out_features=1280, bias=True)
              (dwconv): DWConv(
                (dwconv): Conv2d(1280, 1280, kernel_size=(3, 3), stride=(1, 1), padding=(1, 1), groups=1280)
              )
              (act): GELU()
              (fc2): Linear(in_features=1280, out_features=320, bias=True)
              (drop): Dropout(p=0.0, inplace=False)
            )
            (drop_path): DropPath()
          )
          (9): Block(
            (norm1): LayerNorm((320,), eps=1e-06, elementwise_affine=True)
            (attn): Attention(
              (q): Linear(in_features=320, out_features=320, bias=True)
              (sr): Conv2d(320, 320, kernel_size=(2, 2), stride=(2, 2))
              (norm): LayerNorm((320,), eps=1e-05, elementwise_affine=True)
              (kv): Linear(in_features=320, out_features=640, bias=True)
              (attn_drop): Dropout(p=0.0, inplace=False)
              (proj): Linear(in_features=320, out_features=320, bias=True)
              (proj_drop): Dropout(p=0.0, inplace=False)
            )
            (norm2): LayerNorm((320,), eps=1e-06, elementwise_affine=True)
            (mlp): Mlp(
              (fc1): Linear(in_features=320, out_features=1280, bias=True)
              (dwconv): DWConv(
                (dwconv): Conv2d(1280, 1280, kernel_size=(3, 3), stride=(1, 1), padding=(1, 1), groups=1280)
              )
              (act): GELU()
              (fc2): Linear(in_features=1280, out_features=320, bias=True)
              (drop): Dropout(p=0.0, inplace=False)
            )
            (drop_path): DropPath()
          )
          (10): Block(
            (norm1): LayerNorm((320,), eps=1e-06, elementwise_affine=True)
            (attn): Attention(
              (q): Linear(in_features=320, out_features=320, bias=True)
              (sr): Conv2d(320, 320, kernel_size=(2, 2), stride=(2, 2))
              (norm): LayerNorm((320,), eps=1e-05, elementwise_affine=True)
              (kv): Linear(in_features=320, out_features=640, bias=True)
              (attn_drop): Dropout(p=0.0, inplace=False)
              (proj): Linear(in_features=320, out_features=320, bias=True)
              (proj_drop): Dropout(p=0.0, inplace=False)
            )
            (norm2): LayerNorm((320,), eps=1e-06, elementwise_affine=True)
            (mlp): Mlp(
              (fc1): Linear(in_features=320, out_features=1280, bias=True)
              (dwconv): DWConv(
                (dwconv): Conv2d(1280, 1280, kernel_size=(3, 3), stride=(1, 1), padding=(1, 1), groups=1280)
              )
              (act): GELU()
              (fc2): Linear(in_features=1280, out_features=320, bias=True)
              (drop): Dropout(p=0.0, inplace=False)
            )
            (drop_path): DropPath()
          )
          (11): Block(
            (norm1): LayerNorm((320,), eps=1e-06, elementwise_affine=True)
            (attn): Attention(
              (q): Linear(in_features=320, out_features=320, bias=True)
              (sr): Conv2d(320, 320, kernel_size=(2, 2), stride=(2, 2))
              (norm): LayerNorm((320,), eps=1e-05, elementwise_affine=True)
              (kv): Linear(in_features=320, out_features=640, bias=True)
              (attn_drop): Dropout(p=0.0, inplace=False)
              (proj): Linear(in_features=320, out_features=320, bias=True)
              (proj_drop): Dropout(p=0.0, inplace=False)
            )
            (norm2): LayerNorm((320,), eps=1e-06, elementwise_affine=True)
            (mlp): Mlp(
              (fc1): Linear(in_features=320, out_features=1280, bias=True)
              (dwconv): DWConv(
                (dwconv): Conv2d(1280, 1280, kernel_size=(3, 3), stride=(1, 1), padding=(1, 1), groups=1280)
              )
              (act): GELU()
              (fc2): Linear(in_features=1280, out_features=320, bias=True)
              (drop): Dropout(p=0.0, inplace=False)
            )
            (drop_path): DropPath()
          )
          (12): Block(
            (norm1): LayerNorm((320,), eps=1e-06, elementwise_affine=True)
            (attn): Attention(
              (q): Linear(in_features=320, out_features=320, bias=True)
              (sr): Conv2d(320, 320, kernel_size=(2, 2), stride=(2, 2))
              (norm): LayerNorm((320,), eps=1e-05, elementwise_affine=True)
              (kv): Linear(in_features=320, out_features=640, bias=True)
              (attn_drop): Dropout(p=0.0, inplace=False)
              (proj): Linear(in_features=320, out_features=320, bias=True)
              (proj_drop): Dropout(p=0.0, inplace=False)
            )
            (norm2): LayerNorm((320,), eps=1e-06, elementwise_affine=True)
            (mlp): Mlp(
              (fc1): Linear(in_features=320, out_features=1280, bias=True)
              (dwconv): DWConv(
                (dwconv): Conv2d(1280, 1280, kernel_size=(3, 3), stride=(1, 1), padding=(1, 1), groups=1280)
              )
              (act): GELU()
              (fc2): Linear(in_features=1280, out_features=320, bias=True)
              (drop): Dropout(p=0.0, inplace=False)
            )
            (drop_path): DropPath()
          )
          (13): Block(
            (norm1): LayerNorm((320,), eps=1e-06, elementwise_affine=True)
            (attn): Attention(
              (q): Linear(in_features=320, out_features=320, bias=True)
              (sr): Conv2d(320, 320, kernel_size=(2, 2), stride=(2, 2))
              (norm): LayerNorm((320,), eps=1e-05, elementwise_affine=True)
              (kv): Linear(in_features=320, out_features=640, bias=True)
              (attn_drop): Dropout(p=0.0, inplace=False)
              (proj): Linear(in_features=320, out_features=320, bias=True)
              (proj_drop): Dropout(p=0.0, inplace=False)
            )
            (norm2): LayerNorm((320,), eps=1e-06, elementwise_affine=True)
            (mlp): Mlp(
              (fc1): Linear(in_features=320, out_features=1280, bias=True)
              (dwconv): DWConv(
                (dwconv): Conv2d(1280, 1280, kernel_size=(3, 3), stride=(1, 1), padding=(1, 1), groups=1280)
              )
              (act): GELU()
              (fc2): Linear(in_features=1280, out_features=320, bias=True)
              (drop): Dropout(p=0.0, inplace=False)
            )
            (drop_path): DropPath()
          )
          (14): Block(
            (norm1): LayerNorm((320,), eps=1e-06, elementwise_affine=True)
            (attn): Attention(
              (q): Linear(in_features=320, out_features=320, bias=True)
              (sr): Conv2d(320, 320, kernel_size=(2, 2), stride=(2, 2))
              (norm): LayerNorm((320,), eps=1e-05, elementwise_affine=True)
              (kv): Linear(in_features=320, out_features=640, bias=True)
              (attn_drop): Dropout(p=0.0, inplace=False)
              (proj): Linear(in_features=320, out_features=320, bias=True)
              (proj_drop): Dropout(p=0.0, inplace=False)
            )
            (norm2): LayerNorm((320,), eps=1e-06, elementwise_affine=True)
            (mlp): Mlp(
              (fc1): Linear(in_features=320, out_features=1280, bias=True)
              (dwconv): DWConv(
                (dwconv): Conv2d(1280, 1280, kernel_size=(3, 3), stride=(1, 1), padding=(1, 1), groups=1280)
              )
              (act): GELU()
              (fc2): Linear(in_features=1280, out_features=320, bias=True)
              (drop): Dropout(p=0.0, inplace=False)
            )
            (drop_path): DropPath()
          )
          (15): Block(
            (norm1): LayerNorm((320,), eps=1e-06, elementwise_affine=True)
            (attn): Attention(
              (q): Linear(in_features=320, out_features=320, bias=True)
              (sr): Conv2d(320, 320, kernel_size=(2, 2), stride=(2, 2))
              (norm): LayerNorm((320,), eps=1e-05, elementwise_affine=True)
              (kv): Linear(in_features=320, out_features=640, bias=True)
              (attn_drop): Dropout(p=0.0, inplace=False)
              (proj): Linear(in_features=320, out_features=320, bias=True)
              (proj_drop): Dropout(p=0.0, inplace=False)
            )
            (norm2): LayerNorm((320,), eps=1e-06, elementwise_affine=True)
            (mlp): Mlp(
              (fc1): Linear(in_features=320, out_features=1280, bias=True)
              (dwconv): DWConv(
                (dwconv): Conv2d(1280, 1280, kernel_size=(3, 3), stride=(1, 1), padding=(1, 1), groups=1280)
              )
              (act): GELU()
              (fc2): Linear(in_features=1280, out_features=320, bias=True)
              (drop): Dropout(p=0.0, inplace=False)
            )
            (drop_path): DropPath()
          )
          (16): Block(
            (norm1): LayerNorm((320,), eps=1e-06, elementwise_affine=True)
            (attn): Attention(
              (q): Linear(in_features=320, out_features=320, bias=True)
              (sr): Conv2d(320, 320, kernel_size=(2, 2), stride=(2, 2))
              (norm): LayerNorm((320,), eps=1e-05, elementwise_affine=True)
              (kv): Linear(in_features=320, out_features=640, bias=True)
              (attn_drop): Dropout(p=0.0, inplace=False)
              (proj): Linear(in_features=320, out_features=320, bias=True)
              (proj_drop): Dropout(p=0.0, inplace=False)
            )
            (norm2): LayerNorm((320,), eps=1e-06, elementwise_affine=True)
            (mlp): Mlp(
              (fc1): Linear(in_features=320, out_features=1280, bias=True)
              (dwconv): DWConv(
                (dwconv): Conv2d(1280, 1280, kernel_size=(3, 3), stride=(1, 1), padding=(1, 1), groups=1280)
              )
              (act): GELU()
              (fc2): Linear(in_features=1280, out_features=320, bias=True)
              (drop): Dropout(p=0.0, inplace=False)
            )
            (drop_path): DropPath()
          )
          (17): Block(
            (norm1): LayerNorm((320,), eps=1e-06, elementwise_affine=True)
            (attn): Attention(
              (q): Linear(in_features=320, out_features=320, bias=True)
              (sr): Conv2d(320, 320, kernel_size=(2, 2), stride=(2, 2))
              (norm): LayerNorm((320,), eps=1e-05, elementwise_affine=True)
              (kv): Linear(in_features=320, out_features=640, bias=True)
              (attn_drop): Dropout(p=0.0, inplace=False)
              (proj): Linear(in_features=320, out_features=320, bias=True)
              (proj_drop): Dropout(p=0.0, inplace=False)
            )
            (norm2): LayerNorm((320,), eps=1e-06, elementwise_affine=True)
            (mlp): Mlp(
              (fc1): Linear(in_features=320, out_features=1280, bias=True)
              (dwconv): DWConv(
                (dwconv): Conv2d(1280, 1280, kernel_size=(3, 3), stride=(1, 1), padding=(1, 1), groups=1280)
              )
              (act): GELU()
              (fc2): Linear(in_features=1280, out_features=320, bias=True)
              (drop): Dropout(p=0.0, inplace=False)
            )
            (drop_path): DropPath()
          )
          (18): Block(
            (norm1): LayerNorm((320,), eps=1e-06, elementwise_affine=True)
            (attn): Attention(
              (q): Linear(in_features=320, out_features=320, bias=True)
              (sr): Conv2d(320, 320, kernel_size=(2, 2), stride=(2, 2))
              (norm): LayerNorm((320,), eps=1e-05, elementwise_affine=True)
              (kv): Linear(in_features=320, out_features=640, bias=True)
              (attn_drop): Dropout(p=0.0, inplace=False)
              (proj): Linear(in_features=320, out_features=320, bias=True)
              (proj_drop): Dropout(p=0.0, inplace=False)
            )
            (norm2): LayerNorm((320,), eps=1e-06, elementwise_affine=True)
            (mlp): Mlp(
              (fc1): Linear(in_features=320, out_features=1280, bias=True)
              (dwconv): DWConv(
                (dwconv): Conv2d(1280, 1280, kernel_size=(3, 3), stride=(1, 1), padding=(1, 1), groups=1280)
              )
              (act): GELU()
              (fc2): Linear(in_features=1280, out_features=320, bias=True)
              (drop): Dropout(p=0.0, inplace=False)
            )
            (drop_path): DropPath()
          )
          (19): Block(
            (norm1): LayerNorm((320,), eps=1e-06, elementwise_affine=True)
            (attn): Attention(
              (q): Linear(in_features=320, out_features=320, bias=True)
              (sr): Conv2d(320, 320, kernel_size=(2, 2), stride=(2, 2))
              (norm): LayerNorm((320,), eps=1e-05, elementwise_affine=True)
              (kv): Linear(in_features=320, out_features=640, bias=True)
              (attn_drop): Dropout(p=0.0, inplace=False)
              (proj): Linear(in_features=320, out_features=320, bias=True)
              (proj_drop): Dropout(p=0.0, inplace=False)
            )
            (norm2): LayerNorm((320,), eps=1e-06, elementwise_affine=True)
            (mlp): Mlp(
              (fc1): Linear(in_features=320, out_features=1280, bias=True)
              (dwconv): DWConv(
                (dwconv): Conv2d(1280, 1280, kernel_size=(3, 3), stride=(1, 1), padding=(1, 1), groups=1280)
              )
              (act): GELU()
              (fc2): Linear(in_features=1280, out_features=320, bias=True)
              (drop): Dropout(p=0.0, inplace=False)
            )
            (drop_path): DropPath()
          )
          (20): Block(
            (norm1): LayerNorm((320,), eps=1e-06, elementwise_affine=True)
            (attn): Attention(
              (q): Linear(in_features=320, out_features=320, bias=True)
              (sr): Conv2d(320, 320, kernel_size=(2, 2), stride=(2, 2))
              (norm): LayerNorm((320,), eps=1e-05, elementwise_affine=True)
              (kv): Linear(in_features=320, out_features=640, bias=True)
              (attn_drop): Dropout(p=0.0, inplace=False)
              (proj): Linear(in_features=320, out_features=320, bias=True)
              (proj_drop): Dropout(p=0.0, inplace=False)
            )
            (norm2): LayerNorm((320,), eps=1e-06, elementwise_affine=True)
            (mlp): Mlp(
              (fc1): Linear(in_features=320, out_features=1280, bias=True)
              (dwconv): DWConv(
                (dwconv): Conv2d(1280, 1280, kernel_size=(3, 3), stride=(1, 1), padding=(1, 1), groups=1280)
              )
              (act): GELU()
              (fc2): Linear(in_features=1280, out_features=320, bias=True)
              (drop): Dropout(p=0.0, inplace=False)
            )
            (drop_path): DropPath()
          )
          (21): Block(
            (norm1): LayerNorm((320,), eps=1e-06, elementwise_affine=True)
            (attn): Attention(
              (q): Linear(in_features=320, out_features=320, bias=True)
              (sr): Conv2d(320, 320, kernel_size=(2, 2), stride=(2, 2))
              (norm): LayerNorm((320,), eps=1e-05, elementwise_affine=True)
              (kv): Linear(in_features=320, out_features=640, bias=True)
              (attn_drop): Dropout(p=0.0, inplace=False)
              (proj): Linear(in_features=320, out_features=320, bias=True)
              (proj_drop): Dropout(p=0.0, inplace=False)
            )
            (norm2): LayerNorm((320,), eps=1e-06, elementwise_affine=True)
            (mlp): Mlp(
              (fc1): Linear(in_features=320, out_features=1280, bias=True)
              (dwconv): DWConv(
                (dwconv): Conv2d(1280, 1280, kernel_size=(3, 3), stride=(1, 1), padding=(1, 1), groups=1280)
              )
              (act): GELU()
              (fc2): Linear(in_features=1280, out_features=320, bias=True)
              (drop): Dropout(p=0.0, inplace=False)
            )
            (drop_path): DropPath()
          )
          (22): Block(
            (norm1): LayerNorm((320,), eps=1e-06, elementwise_affine=True)
            (attn): Attention(
              (q): Linear(in_features=320, out_features=320, bias=True)
              (sr): Conv2d(320, 320, kernel_size=(2, 2), stride=(2, 2))
              (norm): LayerNorm((320,), eps=1e-05, elementwise_affine=True)
              (kv): Linear(in_features=320, out_features=640, bias=True)
              (attn_drop): Dropout(p=0.0, inplace=False)
              (proj): Linear(in_features=320, out_features=320, bias=True)
              (proj_drop): Dropout(p=0.0, inplace=False)
            )
            (norm2): LayerNorm((320,), eps=1e-06, elementwise_affine=True)
            (mlp): Mlp(
              (fc1): Linear(in_features=320, out_features=1280, bias=True)
              (dwconv): DWConv(
                (dwconv): Conv2d(1280, 1280, kernel_size=(3, 3), stride=(1, 1), padding=(1, 1), groups=1280)
              )
              (act): GELU()
              (fc2): Linear(in_features=1280, out_features=320, bias=True)
              (drop): Dropout(p=0.0, inplace=False)
            )
            (drop_path): DropPath()
          )
          (23): Block(
            (norm1): LayerNorm((320,), eps=1e-06, elementwise_affine=True)
            (attn): Attention(
              (q): Linear(in_features=320, out_features=320, bias=True)
              (sr): Conv2d(320, 320, kernel_size=(2, 2), stride=(2, 2))
              (norm): LayerNorm((320,), eps=1e-05, elementwise_affine=True)
              (kv): Linear(in_features=320, out_features=640, bias=True)
              (attn_drop): Dropout(p=0.0, inplace=False)
              (proj): Linear(in_features=320, out_features=320, bias=True)
              (proj_drop): Dropout(p=0.0, inplace=False)
            )
            (norm2): LayerNorm((320,), eps=1e-06, elementwise_affine=True)
            (mlp): Mlp(
              (fc1): Linear(in_features=320, out_features=1280, bias=True)
              (dwconv): DWConv(
                (dwconv): Conv2d(1280, 1280, kernel_size=(3, 3), stride=(1, 1), padding=(1, 1), groups=1280)
              )
              (act): GELU()
              (fc2): Linear(in_features=1280, out_features=320, bias=True)
              (drop): Dropout(p=0.0, inplace=False)
            )
            (drop_path): DropPath()
          )
          (24): Block(
            (norm1): LayerNorm((320,), eps=1e-06, elementwise_affine=True)
            (attn): Attention(
              (q): Linear(in_features=320, out_features=320, bias=True)
              (sr): Conv2d(320, 320, kernel_size=(2, 2), stride=(2, 2))
              (norm): LayerNorm((320,), eps=1e-05, elementwise_affine=True)
              (kv): Linear(in_features=320, out_features=640, bias=True)
              (attn_drop): Dropout(p=0.0, inplace=False)
              (proj): Linear(in_features=320, out_features=320, bias=True)
              (proj_drop): Dropout(p=0.0, inplace=False)
            )
            (norm2): LayerNorm((320,), eps=1e-06, elementwise_affine=True)
            (mlp): Mlp(
              (fc1): Linear(in_features=320, out_features=1280, bias=True)
              (dwconv): DWConv(
                (dwconv): Conv2d(1280, 1280, kernel_size=(3, 3), stride=(1, 1), padding=(1, 1), groups=1280)
              )
              (act): GELU()
              (fc2): Linear(in_features=1280, out_features=320, bias=True)
              (drop): Dropout(p=0.0, inplace=False)
            )
            (drop_path): DropPath()
          )
          (25): Block(
            (norm1): LayerNorm((320,), eps=1e-06, elementwise_affine=True)
            (attn): Attention(
              (q): Linear(in_features=320, out_features=320, bias=True)
              (sr): Conv2d(320, 320, kernel_size=(2, 2), stride=(2, 2))
              (norm): LayerNorm((320,), eps=1e-05, elementwise_affine=True)
              (kv): Linear(in_features=320, out_features=640, bias=True)
              (attn_drop): Dropout(p=0.0, inplace=False)
              (proj): Linear(in_features=320, out_features=320, bias=True)
              (proj_drop): Dropout(p=0.0, inplace=False)
            )
            (norm2): LayerNorm((320,), eps=1e-06, elementwise_affine=True)
            (mlp): Mlp(
              (fc1): Linear(in_features=320, out_features=1280, bias=True)
              (dwconv): DWConv(
                (dwconv): Conv2d(1280, 1280, kernel_size=(3, 3), stride=(1, 1), padding=(1, 1), groups=1280)
              )
              (act): GELU()
              (fc2): Linear(in_features=1280, out_features=320, bias=True)
              (drop): Dropout(p=0.0, inplace=False)
            )
            (drop_path): DropPath()
          )
          (26): Block(
            (norm1): LayerNorm((320,), eps=1e-06, elementwise_affine=True)
            (attn): Attention(
              (q): Linear(in_features=320, out_features=320, bias=True)
              (sr): Conv2d(320, 320, kernel_size=(2, 2), stride=(2, 2))
              (norm): LayerNorm((320,), eps=1e-05, elementwise_affine=True)
              (kv): Linear(in_features=320, out_features=640, bias=True)
              (attn_drop): Dropout(p=0.0, inplace=False)
              (proj): Linear(in_features=320, out_features=320, bias=True)
              (proj_drop): Dropout(p=0.0, inplace=False)
            )
            (norm2): LayerNorm((320,), eps=1e-06, elementwise_affine=True)
            (mlp): Mlp(
              (fc1): Linear(in_features=320, out_features=1280, bias=True)
              (dwconv): DWConv(
                (dwconv): Conv2d(1280, 1280, kernel_size=(3, 3), stride=(1, 1), padding=(1, 1), groups=1280)
              )
              (act): GELU()
              (fc2): Linear(in_features=1280, out_features=320, bias=True)
              (drop): Dropout(p=0.0, inplace=False)
            )
            (drop_path): DropPath()
          )
          (27): Block(
            (norm1): LayerNorm((320,), eps=1e-06, elementwise_affine=True)
            (attn): Attention(
              (q): Linear(in_features=320, out_features=320, bias=True)
              (sr): Conv2d(320, 320, kernel_size=(2, 2), stride=(2, 2))
              (norm): LayerNorm((320,), eps=1e-05, elementwise_affine=True)
              (kv): Linear(in_features=320, out_features=640, bias=True)
              (attn_drop): Dropout(p=0.0, inplace=False)
              (proj): Linear(in_features=320, out_features=320, bias=True)
              (proj_drop): Dropout(p=0.0, inplace=False)
            )
            (norm2): LayerNorm((320,), eps=1e-06, elementwise_affine=True)
            (mlp): Mlp(
              (fc1): Linear(in_features=320, out_features=1280, bias=True)
              (dwconv): DWConv(
                (dwconv): Conv2d(1280, 1280, kernel_size=(3, 3), stride=(1, 1), padding=(1, 1), groups=1280)
              )
              (act): GELU()
              (fc2): Linear(in_features=1280, out_features=320, bias=True)
              (drop): Dropout(p=0.0, inplace=False)
            )
            (drop_path): DropPath()
          )
          (28): Block(
            (norm1): LayerNorm((320,), eps=1e-06, elementwise_affine=True)
            (attn): Attention(
              (q): Linear(in_features=320, out_features=320, bias=True)
              (sr): Conv2d(320, 320, kernel_size=(2, 2), stride=(2, 2))
              (norm): LayerNorm((320,), eps=1e-05, elementwise_affine=True)
              (kv): Linear(in_features=320, out_features=640, bias=True)
              (attn_drop): Dropout(p=0.0, inplace=False)
              (proj): Linear(in_features=320, out_features=320, bias=True)
              (proj_drop): Dropout(p=0.0, inplace=False)
            )
            (norm2): LayerNorm((320,), eps=1e-06, elementwise_affine=True)
            (mlp): Mlp(
              (fc1): Linear(in_features=320, out_features=1280, bias=True)
              (dwconv): DWConv(
                (dwconv): Conv2d(1280, 1280, kernel_size=(3, 3), stride=(1, 1), padding=(1, 1), groups=1280)
              )
              (act): GELU()
              (fc2): Linear(in_features=1280, out_features=320, bias=True)
              (drop): Dropout(p=0.0, inplace=False)
            )
            (drop_path): DropPath()
          )
          (29): Block(
            (norm1): LayerNorm((320,), eps=1e-06, elementwise_affine=True)
            (attn): Attention(
              (q): Linear(in_features=320, out_features=320, bias=True)
              (sr): Conv2d(320, 320, kernel_size=(2, 2), stride=(2, 2))
              (norm): LayerNorm((320,), eps=1e-05, elementwise_affine=True)
              (kv): Linear(in_features=320, out_features=640, bias=True)
              (attn_drop): Dropout(p=0.0, inplace=False)
              (proj): Linear(in_features=320, out_features=320, bias=True)
              (proj_drop): Dropout(p=0.0, inplace=False)
            )
            (norm2): LayerNorm((320,), eps=1e-06, elementwise_affine=True)
            (mlp): Mlp(
              (fc1): Linear(in_features=320, out_features=1280, bias=True)
              (dwconv): DWConv(
                (dwconv): Conv2d(1280, 1280, kernel_size=(3, 3), stride=(1, 1), padding=(1, 1), groups=1280)
              )
              (act): GELU()
              (fc2): Linear(in_features=1280, out_features=320, bias=True)
              (drop): Dropout(p=0.0, inplace=False)
            )
            (drop_path): DropPath()
          )
          (30): Block(
            (norm1): LayerNorm((320,), eps=1e-06, elementwise_affine=True)
            (attn): Attention(
              (q): Linear(in_features=320, out_features=320, bias=True)
              (sr): Conv2d(320, 320, kernel_size=(2, 2), stride=(2, 2))
              (norm): LayerNorm((320,), eps=1e-05, elementwise_affine=True)
              (kv): Linear(in_features=320, out_features=640, bias=True)
              (attn_drop): Dropout(p=0.0, inplace=False)
              (proj): Linear(in_features=320, out_features=320, bias=True)
              (proj_drop): Dropout(p=0.0, inplace=False)
            )
            (norm2): LayerNorm((320,), eps=1e-06, elementwise_affine=True)
            (mlp): Mlp(
              (fc1): Linear(in_features=320, out_features=1280, bias=True)
              (dwconv): DWConv(
                (dwconv): Conv2d(1280, 1280, kernel_size=(3, 3), stride=(1, 1), padding=(1, 1), groups=1280)
              )
              (act): GELU()
              (fc2): Linear(in_features=1280, out_features=320, bias=True)
              (drop): Dropout(p=0.0, inplace=False)
            )
            (drop_path): DropPath()
          )
          (31): Block(
            (norm1): LayerNorm((320,), eps=1e-06, elementwise_affine=True)
            (attn): Attention(
              (q): Linear(in_features=320, out_features=320, bias=True)
              (sr): Conv2d(320, 320, kernel_size=(2, 2), stride=(2, 2))
              (norm): LayerNorm((320,), eps=1e-05, elementwise_affine=True)
              (kv): Linear(in_features=320, out_features=640, bias=True)
              (attn_drop): Dropout(p=0.0, inplace=False)
              (proj): Linear(in_features=320, out_features=320, bias=True)
              (proj_drop): Dropout(p=0.0, inplace=False)
            )
            (norm2): LayerNorm((320,), eps=1e-06, elementwise_affine=True)
            (mlp): Mlp(
              (fc1): Linear(in_features=320, out_features=1280, bias=True)
              (dwconv): DWConv(
                (dwconv): Conv2d(1280, 1280, kernel_size=(3, 3), stride=(1, 1), padding=(1, 1), groups=1280)
              )
              (act): GELU()
              (fc2): Linear(in_features=1280, out_features=320, bias=True)
              (drop): Dropout(p=0.0, inplace=False)
            )
            (drop_path): DropPath()
          )
          (32): Block(
            (norm1): LayerNorm((320,), eps=1e-06, elementwise_affine=True)
            (attn): Attention(
              (q): Linear(in_features=320, out_features=320, bias=True)
              (sr): Conv2d(320, 320, kernel_size=(2, 2), stride=(2, 2))
              (norm): LayerNorm((320,), eps=1e-05, elementwise_affine=True)
              (kv): Linear(in_features=320, out_features=640, bias=True)
              (attn_drop): Dropout(p=0.0, inplace=False)
              (proj): Linear(in_features=320, out_features=320, bias=True)
              (proj_drop): Dropout(p=0.0, inplace=False)
            )
            (norm2): LayerNorm((320,), eps=1e-06, elementwise_affine=True)
            (mlp): Mlp(
              (fc1): Linear(in_features=320, out_features=1280, bias=True)
              (dwconv): DWConv(
                (dwconv): Conv2d(1280, 1280, kernel_size=(3, 3), stride=(1, 1), padding=(1, 1), groups=1280)
              )
              (act): GELU()
              (fc2): Linear(in_features=1280, out_features=320, bias=True)
              (drop): Dropout(p=0.0, inplace=False)
            )
            (drop_path): DropPath()
          )
          (33): Block(
            (norm1): LayerNorm((320,), eps=1e-06, elementwise_affine=True)
            (attn): Attention(
              (q): Linear(in_features=320, out_features=320, bias=True)
              (sr): Conv2d(320, 320, kernel_size=(2, 2), stride=(2, 2))
              (norm): LayerNorm((320,), eps=1e-05, elementwise_affine=True)
              (kv): Linear(in_features=320, out_features=640, bias=True)
              (attn_drop): Dropout(p=0.0, inplace=False)
              (proj): Linear(in_features=320, out_features=320, bias=True)
              (proj_drop): Dropout(p=0.0, inplace=False)
            )
            (norm2): LayerNorm((320,), eps=1e-06, elementwise_affine=True)
            (mlp): Mlp(
              (fc1): Linear(in_features=320, out_features=1280, bias=True)
              (dwconv): DWConv(
                (dwconv): Conv2d(1280, 1280, kernel_size=(3, 3), stride=(1, 1), padding=(1, 1), groups=1280)
              )
              (act): GELU()
              (fc2): Linear(in_features=1280, out_features=320, bias=True)
              (drop): Dropout(p=0.0, inplace=False)
            )
            (drop_path): DropPath()
          )
          (34): Block(
            (norm1): LayerNorm((320,), eps=1e-06, elementwise_affine=True)
            (attn): Attention(
              (q): Linear(in_features=320, out_features=320, bias=True)
              (sr): Conv2d(320, 320, kernel_size=(2, 2), stride=(2, 2))
              (norm): LayerNorm((320,), eps=1e-05, elementwise_affine=True)
              (kv): Linear(in_features=320, out_features=640, bias=True)
              (attn_drop): Dropout(p=0.0, inplace=False)
              (proj): Linear(in_features=320, out_features=320, bias=True)
              (proj_drop): Dropout(p=0.0, inplace=False)
            )
            (norm2): LayerNorm((320,), eps=1e-06, elementwise_affine=True)
            (mlp): Mlp(
              (fc1): Linear(in_features=320, out_features=1280, bias=True)
              (dwconv): DWConv(
                (dwconv): Conv2d(1280, 1280, kernel_size=(3, 3), stride=(1, 1), padding=(1, 1), groups=1280)
              )
              (act): GELU()
              (fc2): Linear(in_features=1280, out_features=320, bias=True)
              (drop): Dropout(p=0.0, inplace=False)
            )
            (drop_path): DropPath()
          )
          (35): Block(
            (norm1): LayerNorm((320,), eps=1e-06, elementwise_affine=True)
            (attn): Attention(
              (q): Linear(in_features=320, out_features=320, bias=True)
              (sr): Conv2d(320, 320, kernel_size=(2, 2), stride=(2, 2))
              (norm): LayerNorm((320,), eps=1e-05, elementwise_affine=True)
              (kv): Linear(in_features=320, out_features=640, bias=True)
              (attn_drop): Dropout(p=0.0, inplace=False)
              (proj): Linear(in_features=320, out_features=320, bias=True)
              (proj_drop): Dropout(p=0.0, inplace=False)
            )
            (norm2): LayerNorm((320,), eps=1e-06, elementwise_affine=True)
            (mlp): Mlp(
              (fc1): Linear(in_features=320, out_features=1280, bias=True)
              (dwconv): DWConv(
                (dwconv): Conv2d(1280, 1280, kernel_size=(3, 3), stride=(1, 1), padding=(1, 1), groups=1280)
              )
              (act): GELU()
              (fc2): Linear(in_features=1280, out_features=320, bias=True)
              (drop): Dropout(p=0.0, inplace=False)
            )
            (drop_path): DropPath()
          )
          (36): Block(
            (norm1): LayerNorm((320,), eps=1e-06, elementwise_affine=True)
            (attn): Attention(
              (q): Linear(in_features=320, out_features=320, bias=True)
              (sr): Conv2d(320, 320, kernel_size=(2, 2), stride=(2, 2))
              (norm): LayerNorm((320,), eps=1e-05, elementwise_affine=True)
              (kv): Linear(in_features=320, out_features=640, bias=True)
              (attn_drop): Dropout(p=0.0, inplace=False)
              (proj): Linear(in_features=320, out_features=320, bias=True)
              (proj_drop): Dropout(p=0.0, inplace=False)
            )
            (norm2): LayerNorm((320,), eps=1e-06, elementwise_affine=True)
            (mlp): Mlp(
              (fc1): Linear(in_features=320, out_features=1280, bias=True)
              (dwconv): DWConv(
                (dwconv): Conv2d(1280, 1280, kernel_size=(3, 3), stride=(1, 1), padding=(1, 1), groups=1280)
              )
              (act): GELU()
              (fc2): Linear(in_features=1280, out_features=320, bias=True)
              (drop): Dropout(p=0.0, inplace=False)
            )
            (drop_path): DropPath()
          )
          (37): Block(
            (norm1): LayerNorm((320,), eps=1e-06, elementwise_affine=True)
            (attn): Attention(
              (q): Linear(in_features=320, out_features=320, bias=True)
              (sr): Conv2d(320, 320, kernel_size=(2, 2), stride=(2, 2))
              (norm): LayerNorm((320,), eps=1e-05, elementwise_affine=True)
              (kv): Linear(in_features=320, out_features=640, bias=True)
              (attn_drop): Dropout(p=0.0, inplace=False)
              (proj): Linear(in_features=320, out_features=320, bias=True)
              (proj_drop): Dropout(p=0.0, inplace=False)
            )
            (norm2): LayerNorm((320,), eps=1e-06, elementwise_affine=True)
            (mlp): Mlp(
              (fc1): Linear(in_features=320, out_features=1280, bias=True)
              (dwconv): DWConv(
                (dwconv): Conv2d(1280, 1280, kernel_size=(3, 3), stride=(1, 1), padding=(1, 1), groups=1280)
              )
              (act): GELU()
              (fc2): Linear(in_features=1280, out_features=320, bias=True)
              (drop): Dropout(p=0.0, inplace=False)
            )
            (drop_path): DropPath()
          )
          (38): Block(
            (norm1): LayerNorm((320,), eps=1e-06, elementwise_affine=True)
            (attn): Attention(
              (q): Linear(in_features=320, out_features=320, bias=True)
              (sr): Conv2d(320, 320, kernel_size=(2, 2), stride=(2, 2))
              (norm): LayerNorm((320,), eps=1e-05, elementwise_affine=True)
              (kv): Linear(in_features=320, out_features=640, bias=True)
              (attn_drop): Dropout(p=0.0, inplace=False)
              (proj): Linear(in_features=320, out_features=320, bias=True)
              (proj_drop): Dropout(p=0.0, inplace=False)
            )
            (norm2): LayerNorm((320,), eps=1e-06, elementwise_affine=True)
            (mlp): Mlp(
              (fc1): Linear(in_features=320, out_features=1280, bias=True)
              (dwconv): DWConv(
                (dwconv): Conv2d(1280, 1280, kernel_size=(3, 3), stride=(1, 1), padding=(1, 1), groups=1280)
              )
              (act): GELU()
              (fc2): Linear(in_features=1280, out_features=320, bias=True)
              (drop): Dropout(p=0.0, inplace=False)
            )
            (drop_path): DropPath()
          )
          (39): Block(
            (norm1): LayerNorm((320,), eps=1e-06, elementwise_affine=True)
            (attn): Attention(
              (q): Linear(in_features=320, out_features=320, bias=True)
              (sr): Conv2d(320, 320, kernel_size=(2, 2), stride=(2, 2))
              (norm): LayerNorm((320,), eps=1e-05, elementwise_affine=True)
              (kv): Linear(in_features=320, out_features=640, bias=True)
              (attn_drop): Dropout(p=0.0, inplace=False)
              (proj): Linear(in_features=320, out_features=320, bias=True)
              (proj_drop): Dropout(p=0.0, inplace=False)
            )
            (norm2): LayerNorm((320,), eps=1e-06, elementwise_affine=True)
            (mlp): Mlp(
              (fc1): Linear(in_features=320, out_features=1280, bias=True)
              (dwconv): DWConv(
                (dwconv): Conv2d(1280, 1280, kernel_size=(3, 3), stride=(1, 1), padding=(1, 1), groups=1280)
              )
              (act): GELU()
              (fc2): Linear(in_features=1280, out_features=320, bias=True)
              (drop): Dropout(p=0.0, inplace=False)
            )
            (drop_path): DropPath()
          )
        )
        (norm3): LayerNorm((320,), eps=1e-06, elementwise_affine=True)
        (patch_embed4): OverlapPatchEmbed(
          (proj): Conv2d(320, 512, kernel_size=(3, 3), stride=(2, 2), padding=(1, 1))
          (norm): LayerNorm((512,), eps=1e-05, elementwise_affine=True)
        )
        (block4): ModuleList(
          (0): Block(
            (norm1): LayerNorm((512,), eps=1e-06, elementwise_affine=True)
            (attn): Attention(
              (q): Linear(in_features=512, out_features=512, bias=True)
              (kv): Linear(in_features=512, out_features=1024, bias=True)
              (attn_drop): Dropout(p=0.0, inplace=False)
              (proj): Linear(in_features=512, out_features=512, bias=True)
              (proj_drop): Dropout(p=0.0, inplace=False)
            )
            (norm2): LayerNorm((512,), eps=1e-06, elementwise_affine=True)
            (mlp): Mlp(
              (fc1): Linear(in_features=512, out_features=2048, bias=True)
              (dwconv): DWConv(
                (dwconv): Conv2d(2048, 2048, kernel_size=(3, 3), stride=(1, 1), padding=(1, 1), groups=2048)
              )
              (act): GELU()
              (fc2): Linear(in_features=2048, out_features=512, bias=True)
              (drop): Dropout(p=0.0, inplace=False)
            )
            (drop_path): DropPath()
          )
          (1): Block(
            (norm1): LayerNorm((512,), eps=1e-06, elementwise_affine=True)
            (attn): Attention(
              (q): Linear(in_features=512, out_features=512, bias=True)
              (kv): Linear(in_features=512, out_features=1024, bias=True)
              (attn_drop): Dropout(p=0.0, inplace=False)
              (proj): Linear(in_features=512, out_features=512, bias=True)
              (proj_drop): Dropout(p=0.0, inplace=False)
            )
            (norm2): LayerNorm((512,), eps=1e-06, elementwise_affine=True)
            (mlp): Mlp(
              (fc1): Linear(in_features=512, out_features=2048, bias=True)
              (dwconv): DWConv(
                (dwconv): Conv2d(2048, 2048, kernel_size=(3, 3), stride=(1, 1), padding=(1, 1), groups=2048)
              )
              (act): GELU()
              (fc2): Linear(in_features=2048, out_features=512, bias=True)
              (drop): Dropout(p=0.0, inplace=False)
            )
            (drop_path): DropPath()
          )
          (2): Block(
            (norm1): LayerNorm((512,), eps=1e-06, elementwise_affine=True)
            (attn): Attention(
              (q): Linear(in_features=512, out_features=512, bias=True)
              (kv): Linear(in_features=512, out_features=1024, bias=True)
              (attn_drop): Dropout(p=0.0, inplace=False)
              (proj): Linear(in_features=512, out_features=512, bias=True)
              (proj_drop): Dropout(p=0.0, inplace=False)
            )
            (norm2): LayerNorm((512,), eps=1e-06, elementwise_affine=True)
            (mlp): Mlp(
              (fc1): Linear(in_features=512, out_features=2048, bias=True)
              (dwconv): DWConv(
                (dwconv): Conv2d(2048, 2048, kernel_size=(3, 3), stride=(1, 1), padding=(1, 1), groups=2048)
              )
              (act): GELU()
              (fc2): Linear(in_features=2048, out_features=512, bias=True)
              (drop): Dropout(p=0.0, inplace=False)
            )
            (drop_path): DropPath()
          )
        )
        (norm4): LayerNorm((512,), eps=1e-06, elementwise_affine=True)
        (conv1): Conv2d(64, 256, kernel_size=(1, 1), stride=(1, 1))
        (conv2): Conv2d(128, 256, kernel_size=(1, 1), stride=(1, 1))
        (conv3): Conv2d(320, 256, kernel_size=(1, 1), stride=(1, 1))
        (conv4): Conv2d(512, 256, kernel_size=(1, 1), stride=(1, 1))
      )
      (decode_head): SegFormerHead(
        (linear_c4): MLP(
          (proj): Linear(in_features=512, out_features=768, bias=True)
        )
        (linear_c3): MLP(
          (proj): Linear(in_features=320, out_features=768, bias=True)
        )
        (linear_c2): MLP(
          (proj): Linear(in_features=128, out_features=768, bias=True)
        )
        (linear_c1): MLP(
          (proj): Linear(in_features=64, out_features=768, bias=True)
        )
        (linear_fuse): ConvModule(
          (conv): Conv2d(3072, 768, kernel_size=(1, 1), stride=(1, 1), bias=False)
          (bn): BatchNorm2d(768, eps=0.001, momentum=0.03, affine=True, track_running_stats=True)
          (act): ReLU()
        )
        (linear_pred): Conv2d(768, 2, kernel_size=(1, 1), stride=(1, 1))
        (dropout): Dropout2d(p=0.1, inplace=False)
      )
      (convinput): Conv2d(1, 4, kernel_size=(1, 1), stride=(1, 1))
      (convout): Conv2d(2, 256, kernel_size=(1, 1), stride=(1, 1))
    )
    (encoder_art): SegFormer(
      (backbone): mit_b5(
        (patch_embed1): OverlapPatchEmbed(
          (proj): Conv2d(4, 64, kernel_size=(7, 7), stride=(4, 4), padding=(3, 3))
          (norm): LayerNorm((64,), eps=1e-05, elementwise_affine=True)
        )
        (block1): ModuleList(
          (0): Block(
            (norm1): LayerNorm((64,), eps=1e-06, elementwise_affine=True)
            (attn): Attention(
              (q): Linear(in_features=64, out_features=64, bias=True)
              (sr): Conv2d(64, 64, kernel_size=(8, 8), stride=(8, 8))
              (norm): LayerNorm((64,), eps=1e-05, elementwise_affine=True)
              (kv): Linear(in_features=64, out_features=128, bias=True)
              (attn_drop): Dropout(p=0.0, inplace=False)
              (proj): Linear(in_features=64, out_features=64, bias=True)
              (proj_drop): Dropout(p=0.0, inplace=False)
            )
            (norm2): LayerNorm((64,), eps=1e-06, elementwise_affine=True)
            (mlp): Mlp(
              (fc1): Linear(in_features=64, out_features=256, bias=True)
              (dwconv): DWConv(
                (dwconv): Conv2d(256, 256, kernel_size=(3, 3), stride=(1, 1), padding=(1, 1), groups=256)
              )
              (act): GELU()
              (fc2): Linear(in_features=256, out_features=64, bias=True)
              (drop): Dropout(p=0.0, inplace=False)
            )
            (drop_path): Identity()
          )
          (1): Block(
            (norm1): LayerNorm((64,), eps=1e-06, elementwise_affine=True)
            (attn): Attention(
              (q): Linear(in_features=64, out_features=64, bias=True)
              (sr): Conv2d(64, 64, kernel_size=(8, 8), stride=(8, 8))
              (norm): LayerNorm((64,), eps=1e-05, elementwise_affine=True)
              (kv): Linear(in_features=64, out_features=128, bias=True)
              (attn_drop): Dropout(p=0.0, inplace=False)
              (proj): Linear(in_features=64, out_features=64, bias=True)
              (proj_drop): Dropout(p=0.0, inplace=False)
            )
            (norm2): LayerNorm((64,), eps=1e-06, elementwise_affine=True)
            (mlp): Mlp(
              (fc1): Linear(in_features=64, out_features=256, bias=True)
              (dwconv): DWConv(
                (dwconv): Conv2d(256, 256, kernel_size=(3, 3), stride=(1, 1), padding=(1, 1), groups=256)
              )
              (act): GELU()
              (fc2): Linear(in_features=256, out_features=64, bias=True)
              (drop): Dropout(p=0.0, inplace=False)
            )
            (drop_path): DropPath()
          )
          (2): Block(
            (norm1): LayerNorm((64,), eps=1e-06, elementwise_affine=True)
            (attn): Attention(
              (q): Linear(in_features=64, out_features=64, bias=True)
              (sr): Conv2d(64, 64, kernel_size=(8, 8), stride=(8, 8))
              (norm): LayerNorm((64,), eps=1e-05, elementwise_affine=True)
              (kv): Linear(in_features=64, out_features=128, bias=True)
              (attn_drop): Dropout(p=0.0, inplace=False)
              (proj): Linear(in_features=64, out_features=64, bias=True)
              (proj_drop): Dropout(p=0.0, inplace=False)
            )
            (norm2): LayerNorm((64,), eps=1e-06, elementwise_affine=True)
            (mlp): Mlp(
              (fc1): Linear(in_features=64, out_features=256, bias=True)
              (dwconv): DWConv(
                (dwconv): Conv2d(256, 256, kernel_size=(3, 3), stride=(1, 1), padding=(1, 1), groups=256)
              )
              (act): GELU()
              (fc2): Linear(in_features=256, out_features=64, bias=True)
              (drop): Dropout(p=0.0, inplace=False)
            )
            (drop_path): DropPath()
          )
        )
        (norm1): LayerNorm((64,), eps=1e-06, elementwise_affine=True)
        (patch_embed2): OverlapPatchEmbed(
          (proj): Conv2d(64, 128, kernel_size=(3, 3), stride=(2, 2), padding=(1, 1))
          (norm): LayerNorm((128,), eps=1e-05, elementwise_affine=True)
        )
        (block2): ModuleList(
          (0): Block(
            (norm1): LayerNorm((128,), eps=1e-06, elementwise_affine=True)
            (attn): Attention(
              (q): Linear(in_features=128, out_features=128, bias=True)
              (sr): Conv2d(128, 128, kernel_size=(4, 4), stride=(4, 4))
              (norm): LayerNorm((128,), eps=1e-05, elementwise_affine=True)
              (kv): Linear(in_features=128, out_features=256, bias=True)
              (attn_drop): Dropout(p=0.0, inplace=False)
              (proj): Linear(in_features=128, out_features=128, bias=True)
              (proj_drop): Dropout(p=0.0, inplace=False)
            )
            (norm2): LayerNorm((128,), eps=1e-06, elementwise_affine=True)
            (mlp): Mlp(
              (fc1): Linear(in_features=128, out_features=512, bias=True)
              (dwconv): DWConv(
                (dwconv): Conv2d(512, 512, kernel_size=(3, 3), stride=(1, 1), padding=(1, 1), groups=512)
              )
              (act): GELU()
              (fc2): Linear(in_features=512, out_features=128, bias=True)
              (drop): Dropout(p=0.0, inplace=False)
            )
            (drop_path): DropPath()
          )
          (1): Block(
            (norm1): LayerNorm((128,), eps=1e-06, elementwise_affine=True)
            (attn): Attention(
              (q): Linear(in_features=128, out_features=128, bias=True)
              (sr): Conv2d(128, 128, kernel_size=(4, 4), stride=(4, 4))
              (norm): LayerNorm((128,), eps=1e-05, elementwise_affine=True)
              (kv): Linear(in_features=128, out_features=256, bias=True)
              (attn_drop): Dropout(p=0.0, inplace=False)
              (proj): Linear(in_features=128, out_features=128, bias=True)
              (proj_drop): Dropout(p=0.0, inplace=False)
            )
            (norm2): LayerNorm((128,), eps=1e-06, elementwise_affine=True)
            (mlp): Mlp(
              (fc1): Linear(in_features=128, out_features=512, bias=True)
              (dwconv): DWConv(
                (dwconv): Conv2d(512, 512, kernel_size=(3, 3), stride=(1, 1), padding=(1, 1), groups=512)
              )
              (act): GELU()
              (fc2): Linear(in_features=512, out_features=128, bias=True)
              (drop): Dropout(p=0.0, inplace=False)
            )
            (drop_path): DropPath()
          )
          (2): Block(
            (norm1): LayerNorm((128,), eps=1e-06, elementwise_affine=True)
            (attn): Attention(
              (q): Linear(in_features=128, out_features=128, bias=True)
              (sr): Conv2d(128, 128, kernel_size=(4, 4), stride=(4, 4))
              (norm): LayerNorm((128,), eps=1e-05, elementwise_affine=True)
              (kv): Linear(in_features=128, out_features=256, bias=True)
              (attn_drop): Dropout(p=0.0, inplace=False)
              (proj): Linear(in_features=128, out_features=128, bias=True)
              (proj_drop): Dropout(p=0.0, inplace=False)
            )
            (norm2): LayerNorm((128,), eps=1e-06, elementwise_affine=True)
            (mlp): Mlp(
              (fc1): Linear(in_features=128, out_features=512, bias=True)
              (dwconv): DWConv(
                (dwconv): Conv2d(512, 512, kernel_size=(3, 3), stride=(1, 1), padding=(1, 1), groups=512)
              )
              (act): GELU()
              (fc2): Linear(in_features=512, out_features=128, bias=True)
              (drop): Dropout(p=0.0, inplace=False)
            )
            (drop_path): DropPath()
          )
          (3): Block(
            (norm1): LayerNorm((128,), eps=1e-06, elementwise_affine=True)
            (attn): Attention(
              (q): Linear(in_features=128, out_features=128, bias=True)
              (sr): Conv2d(128, 128, kernel_size=(4, 4), stride=(4, 4))
              (norm): LayerNorm((128,), eps=1e-05, elementwise_affine=True)
              (kv): Linear(in_features=128, out_features=256, bias=True)
              (attn_drop): Dropout(p=0.0, inplace=False)
              (proj): Linear(in_features=128, out_features=128, bias=True)
              (proj_drop): Dropout(p=0.0, inplace=False)
            )
            (norm2): LayerNorm((128,), eps=1e-06, elementwise_affine=True)
            (mlp): Mlp(
              (fc1): Linear(in_features=128, out_features=512, bias=True)
              (dwconv): DWConv(
                (dwconv): Conv2d(512, 512, kernel_size=(3, 3), stride=(1, 1), padding=(1, 1), groups=512)
              )
              (act): GELU()
              (fc2): Linear(in_features=512, out_features=128, bias=True)
              (drop): Dropout(p=0.0, inplace=False)
            )
            (drop_path): DropPath()
          )
          (4): Block(
            (norm1): LayerNorm((128,), eps=1e-06, elementwise_affine=True)
            (attn): Attention(
              (q): Linear(in_features=128, out_features=128, bias=True)
              (sr): Conv2d(128, 128, kernel_size=(4, 4), stride=(4, 4))
              (norm): LayerNorm((128,), eps=1e-05, elementwise_affine=True)
              (kv): Linear(in_features=128, out_features=256, bias=True)
              (attn_drop): Dropout(p=0.0, inplace=False)
              (proj): Linear(in_features=128, out_features=128, bias=True)
              (proj_drop): Dropout(p=0.0, inplace=False)
            )
            (norm2): LayerNorm((128,), eps=1e-06, elementwise_affine=True)
            (mlp): Mlp(
              (fc1): Linear(in_features=128, out_features=512, bias=True)
              (dwconv): DWConv(
                (dwconv): Conv2d(512, 512, kernel_size=(3, 3), stride=(1, 1), padding=(1, 1), groups=512)
              )
              (act): GELU()
              (fc2): Linear(in_features=512, out_features=128, bias=True)
              (drop): Dropout(p=0.0, inplace=False)
            )
            (drop_path): DropPath()
          )
          (5): Block(
            (norm1): LayerNorm((128,), eps=1e-06, elementwise_affine=True)
            (attn): Attention(
              (q): Linear(in_features=128, out_features=128, bias=True)
              (sr): Conv2d(128, 128, kernel_size=(4, 4), stride=(4, 4))
              (norm): LayerNorm((128,), eps=1e-05, elementwise_affine=True)
              (kv): Linear(in_features=128, out_features=256, bias=True)
              (attn_drop): Dropout(p=0.0, inplace=False)
              (proj): Linear(in_features=128, out_features=128, bias=True)
              (proj_drop): Dropout(p=0.0, inplace=False)
            )
            (norm2): LayerNorm((128,), eps=1e-06, elementwise_affine=True)
            (mlp): Mlp(
              (fc1): Linear(in_features=128, out_features=512, bias=True)
              (dwconv): DWConv(
                (dwconv): Conv2d(512, 512, kernel_size=(3, 3), stride=(1, 1), padding=(1, 1), groups=512)
              )
              (act): GELU()
              (fc2): Linear(in_features=512, out_features=128, bias=True)
              (drop): Dropout(p=0.0, inplace=False)
            )
            (drop_path): DropPath()
          )
        )
        (norm2): LayerNorm((128,), eps=1e-06, elementwise_affine=True)
        (patch_embed3): OverlapPatchEmbed(
          (proj): Conv2d(128, 320, kernel_size=(3, 3), stride=(2, 2), padding=(1, 1))
          (norm): LayerNorm((320,), eps=1e-05, elementwise_affine=True)
        )
        (block3): ModuleList(
          (0): Block(
            (norm1): LayerNorm((320,), eps=1e-06, elementwise_affine=True)
            (attn): Attention(
              (q): Linear(in_features=320, out_features=320, bias=True)
              (sr): Conv2d(320, 320, kernel_size=(2, 2), stride=(2, 2))
              (norm): LayerNorm((320,), eps=1e-05, elementwise_affine=True)
              (kv): Linear(in_features=320, out_features=640, bias=True)
              (attn_drop): Dropout(p=0.0, inplace=False)
              (proj): Linear(in_features=320, out_features=320, bias=True)
              (proj_drop): Dropout(p=0.0, inplace=False)
            )
            (norm2): LayerNorm((320,), eps=1e-06, elementwise_affine=True)
            (mlp): Mlp(
              (fc1): Linear(in_features=320, out_features=1280, bias=True)
              (dwconv): DWConv(
                (dwconv): Conv2d(1280, 1280, kernel_size=(3, 3), stride=(1, 1), padding=(1, 1), groups=1280)
              )
              (act): GELU()
              (fc2): Linear(in_features=1280, out_features=320, bias=True)
              (drop): Dropout(p=0.0, inplace=False)
            )
            (drop_path): DropPath()
          )
          (1): Block(
            (norm1): LayerNorm((320,), eps=1e-06, elementwise_affine=True)
            (attn): Attention(
              (q): Linear(in_features=320, out_features=320, bias=True)
              (sr): Conv2d(320, 320, kernel_size=(2, 2), stride=(2, 2))
              (norm): LayerNorm((320,), eps=1e-05, elementwise_affine=True)
              (kv): Linear(in_features=320, out_features=640, bias=True)
              (attn_drop): Dropout(p=0.0, inplace=False)
              (proj): Linear(in_features=320, out_features=320, bias=True)
              (proj_drop): Dropout(p=0.0, inplace=False)
            )
            (norm2): LayerNorm((320,), eps=1e-06, elementwise_affine=True)
            (mlp): Mlp(
              (fc1): Linear(in_features=320, out_features=1280, bias=True)
              (dwconv): DWConv(
                (dwconv): Conv2d(1280, 1280, kernel_size=(3, 3), stride=(1, 1), padding=(1, 1), groups=1280)
              )
              (act): GELU()
              (fc2): Linear(in_features=1280, out_features=320, bias=True)
              (drop): Dropout(p=0.0, inplace=False)
            )
            (drop_path): DropPath()
          )
          (2): Block(
            (norm1): LayerNorm((320,), eps=1e-06, elementwise_affine=True)
            (attn): Attention(
              (q): Linear(in_features=320, out_features=320, bias=True)
              (sr): Conv2d(320, 320, kernel_size=(2, 2), stride=(2, 2))
              (norm): LayerNorm((320,), eps=1e-05, elementwise_affine=True)
              (kv): Linear(in_features=320, out_features=640, bias=True)
              (attn_drop): Dropout(p=0.0, inplace=False)
              (proj): Linear(in_features=320, out_features=320, bias=True)
              (proj_drop): Dropout(p=0.0, inplace=False)
            )
            (norm2): LayerNorm((320,), eps=1e-06, elementwise_affine=True)
            (mlp): Mlp(
              (fc1): Linear(in_features=320, out_features=1280, bias=True)
              (dwconv): DWConv(
                (dwconv): Conv2d(1280, 1280, kernel_size=(3, 3), stride=(1, 1), padding=(1, 1), groups=1280)
              )
              (act): GELU()
              (fc2): Linear(in_features=1280, out_features=320, bias=True)
              (drop): Dropout(p=0.0, inplace=False)
            )
            (drop_path): DropPath()
          )
          (3): Block(
            (norm1): LayerNorm((320,), eps=1e-06, elementwise_affine=True)
            (attn): Attention(
              (q): Linear(in_features=320, out_features=320, bias=True)
              (sr): Conv2d(320, 320, kernel_size=(2, 2), stride=(2, 2))
              (norm): LayerNorm((320,), eps=1e-05, elementwise_affine=True)
              (kv): Linear(in_features=320, out_features=640, bias=True)
              (attn_drop): Dropout(p=0.0, inplace=False)
              (proj): Linear(in_features=320, out_features=320, bias=True)
              (proj_drop): Dropout(p=0.0, inplace=False)
            )
            (norm2): LayerNorm((320,), eps=1e-06, elementwise_affine=True)
            (mlp): Mlp(
              (fc1): Linear(in_features=320, out_features=1280, bias=True)
              (dwconv): DWConv(
                (dwconv): Conv2d(1280, 1280, kernel_size=(3, 3), stride=(1, 1), padding=(1, 1), groups=1280)
              )
              (act): GELU()
              (fc2): Linear(in_features=1280, out_features=320, bias=True)
              (drop): Dropout(p=0.0, inplace=False)
            )
            (drop_path): DropPath()
          )
          (4): Block(
            (norm1): LayerNorm((320,), eps=1e-06, elementwise_affine=True)
            (attn): Attention(
              (q): Linear(in_features=320, out_features=320, bias=True)
              (sr): Conv2d(320, 320, kernel_size=(2, 2), stride=(2, 2))
              (norm): LayerNorm((320,), eps=1e-05, elementwise_affine=True)
              (kv): Linear(in_features=320, out_features=640, bias=True)
              (attn_drop): Dropout(p=0.0, inplace=False)
              (proj): Linear(in_features=320, out_features=320, bias=True)
              (proj_drop): Dropout(p=0.0, inplace=False)
            )
            (norm2): LayerNorm((320,), eps=1e-06, elementwise_affine=True)
            (mlp): Mlp(
              (fc1): Linear(in_features=320, out_features=1280, bias=True)
              (dwconv): DWConv(
                (dwconv): Conv2d(1280, 1280, kernel_size=(3, 3), stride=(1, 1), padding=(1, 1), groups=1280)
              )
              (act): GELU()
              (fc2): Linear(in_features=1280, out_features=320, bias=True)
              (drop): Dropout(p=0.0, inplace=False)
            )
            (drop_path): DropPath()
          )
          (5): Block(
            (norm1): LayerNorm((320,), eps=1e-06, elementwise_affine=True)
            (attn): Attention(
              (q): Linear(in_features=320, out_features=320, bias=True)
              (sr): Conv2d(320, 320, kernel_size=(2, 2), stride=(2, 2))
              (norm): LayerNorm((320,), eps=1e-05, elementwise_affine=True)
              (kv): Linear(in_features=320, out_features=640, bias=True)
              (attn_drop): Dropout(p=0.0, inplace=False)
              (proj): Linear(in_features=320, out_features=320, bias=True)
              (proj_drop): Dropout(p=0.0, inplace=False)
            )
            (norm2): LayerNorm((320,), eps=1e-06, elementwise_affine=True)
            (mlp): Mlp(
              (fc1): Linear(in_features=320, out_features=1280, bias=True)
              (dwconv): DWConv(
                (dwconv): Conv2d(1280, 1280, kernel_size=(3, 3), stride=(1, 1), padding=(1, 1), groups=1280)
              )
              (act): GELU()
              (fc2): Linear(in_features=1280, out_features=320, bias=True)
              (drop): Dropout(p=0.0, inplace=False)
            )
            (drop_path): DropPath()
          )
          (6): Block(
            (norm1): LayerNorm((320,), eps=1e-06, elementwise_affine=True)
            (attn): Attention(
              (q): Linear(in_features=320, out_features=320, bias=True)
              (sr): Conv2d(320, 320, kernel_size=(2, 2), stride=(2, 2))
              (norm): LayerNorm((320,), eps=1e-05, elementwise_affine=True)
              (kv): Linear(in_features=320, out_features=640, bias=True)
              (attn_drop): Dropout(p=0.0, inplace=False)
              (proj): Linear(in_features=320, out_features=320, bias=True)
              (proj_drop): Dropout(p=0.0, inplace=False)
            )
            (norm2): LayerNorm((320,), eps=1e-06, elementwise_affine=True)
            (mlp): Mlp(
              (fc1): Linear(in_features=320, out_features=1280, bias=True)
              (dwconv): DWConv(
                (dwconv): Conv2d(1280, 1280, kernel_size=(3, 3), stride=(1, 1), padding=(1, 1), groups=1280)
              )
              (act): GELU()
              (fc2): Linear(in_features=1280, out_features=320, bias=True)
              (drop): Dropout(p=0.0, inplace=False)
            )
            (drop_path): DropPath()
          )
          (7): Block(
            (norm1): LayerNorm((320,), eps=1e-06, elementwise_affine=True)
            (attn): Attention(
              (q): Linear(in_features=320, out_features=320, bias=True)
              (sr): Conv2d(320, 320, kernel_size=(2, 2), stride=(2, 2))
              (norm): LayerNorm((320,), eps=1e-05, elementwise_affine=True)
              (kv): Linear(in_features=320, out_features=640, bias=True)
              (attn_drop): Dropout(p=0.0, inplace=False)
              (proj): Linear(in_features=320, out_features=320, bias=True)
              (proj_drop): Dropout(p=0.0, inplace=False)
            )
            (norm2): LayerNorm((320,), eps=1e-06, elementwise_affine=True)
            (mlp): Mlp(
              (fc1): Linear(in_features=320, out_features=1280, bias=True)
              (dwconv): DWConv(
                (dwconv): Conv2d(1280, 1280, kernel_size=(3, 3), stride=(1, 1), padding=(1, 1), groups=1280)
              )
              (act): GELU()
              (fc2): Linear(in_features=1280, out_features=320, bias=True)
              (drop): Dropout(p=0.0, inplace=False)
            )
            (drop_path): DropPath()
          )
          (8): Block(
            (norm1): LayerNorm((320,), eps=1e-06, elementwise_affine=True)
            (attn): Attention(
              (q): Linear(in_features=320, out_features=320, bias=True)
              (sr): Conv2d(320, 320, kernel_size=(2, 2), stride=(2, 2))
              (norm): LayerNorm((320,), eps=1e-05, elementwise_affine=True)
              (kv): Linear(in_features=320, out_features=640, bias=True)
              (attn_drop): Dropout(p=0.0, inplace=False)
              (proj): Linear(in_features=320, out_features=320, bias=True)
              (proj_drop): Dropout(p=0.0, inplace=False)
            )
            (norm2): LayerNorm((320,), eps=1e-06, elementwise_affine=True)
            (mlp): Mlp(
              (fc1): Linear(in_features=320, out_features=1280, bias=True)
              (dwconv): DWConv(
                (dwconv): Conv2d(1280, 1280, kernel_size=(3, 3), stride=(1, 1), padding=(1, 1), groups=1280)
              )
              (act): GELU()
              (fc2): Linear(in_features=1280, out_features=320, bias=True)
              (drop): Dropout(p=0.0, inplace=False)
            )
            (drop_path): DropPath()
          )
          (9): Block(
            (norm1): LayerNorm((320,), eps=1e-06, elementwise_affine=True)
            (attn): Attention(
              (q): Linear(in_features=320, out_features=320, bias=True)
              (sr): Conv2d(320, 320, kernel_size=(2, 2), stride=(2, 2))
              (norm): LayerNorm((320,), eps=1e-05, elementwise_affine=True)
              (kv): Linear(in_features=320, out_features=640, bias=True)
              (attn_drop): Dropout(p=0.0, inplace=False)
              (proj): Linear(in_features=320, out_features=320, bias=True)
              (proj_drop): Dropout(p=0.0, inplace=False)
            )
            (norm2): LayerNorm((320,), eps=1e-06, elementwise_affine=True)
            (mlp): Mlp(
              (fc1): Linear(in_features=320, out_features=1280, bias=True)
              (dwconv): DWConv(
                (dwconv): Conv2d(1280, 1280, kernel_size=(3, 3), stride=(1, 1), padding=(1, 1), groups=1280)
              )
              (act): GELU()
              (fc2): Linear(in_features=1280, out_features=320, bias=True)
              (drop): Dropout(p=0.0, inplace=False)
            )
            (drop_path): DropPath()
          )
          (10): Block(
            (norm1): LayerNorm((320,), eps=1e-06, elementwise_affine=True)
            (attn): Attention(
              (q): Linear(in_features=320, out_features=320, bias=True)
              (sr): Conv2d(320, 320, kernel_size=(2, 2), stride=(2, 2))
              (norm): LayerNorm((320,), eps=1e-05, elementwise_affine=True)
              (kv): Linear(in_features=320, out_features=640, bias=True)
              (attn_drop): Dropout(p=0.0, inplace=False)
              (proj): Linear(in_features=320, out_features=320, bias=True)
              (proj_drop): Dropout(p=0.0, inplace=False)
            )
            (norm2): LayerNorm((320,), eps=1e-06, elementwise_affine=True)
            (mlp): Mlp(
              (fc1): Linear(in_features=320, out_features=1280, bias=True)
              (dwconv): DWConv(
                (dwconv): Conv2d(1280, 1280, kernel_size=(3, 3), stride=(1, 1), padding=(1, 1), groups=1280)
              )
              (act): GELU()
              (fc2): Linear(in_features=1280, out_features=320, bias=True)
              (drop): Dropout(p=0.0, inplace=False)
            )
            (drop_path): DropPath()
          )
          (11): Block(
            (norm1): LayerNorm((320,), eps=1e-06, elementwise_affine=True)
            (attn): Attention(
              (q): Linear(in_features=320, out_features=320, bias=True)
              (sr): Conv2d(320, 320, kernel_size=(2, 2), stride=(2, 2))
              (norm): LayerNorm((320,), eps=1e-05, elementwise_affine=True)
              (kv): Linear(in_features=320, out_features=640, bias=True)
              (attn_drop): Dropout(p=0.0, inplace=False)
              (proj): Linear(in_features=320, out_features=320, bias=True)
              (proj_drop): Dropout(p=0.0, inplace=False)
            )
            (norm2): LayerNorm((320,), eps=1e-06, elementwise_affine=True)
            (mlp): Mlp(
              (fc1): Linear(in_features=320, out_features=1280, bias=True)
              (dwconv): DWConv(
                (dwconv): Conv2d(1280, 1280, kernel_size=(3, 3), stride=(1, 1), padding=(1, 1), groups=1280)
              )
              (act): GELU()
              (fc2): Linear(in_features=1280, out_features=320, bias=True)
              (drop): Dropout(p=0.0, inplace=False)
            )
            (drop_path): DropPath()
          )
          (12): Block(
            (norm1): LayerNorm((320,), eps=1e-06, elementwise_affine=True)
            (attn): Attention(
              (q): Linear(in_features=320, out_features=320, bias=True)
              (sr): Conv2d(320, 320, kernel_size=(2, 2), stride=(2, 2))
              (norm): LayerNorm((320,), eps=1e-05, elementwise_affine=True)
              (kv): Linear(in_features=320, out_features=640, bias=True)
              (attn_drop): Dropout(p=0.0, inplace=False)
              (proj): Linear(in_features=320, out_features=320, bias=True)
              (proj_drop): Dropout(p=0.0, inplace=False)
            )
            (norm2): LayerNorm((320,), eps=1e-06, elementwise_affine=True)
            (mlp): Mlp(
              (fc1): Linear(in_features=320, out_features=1280, bias=True)
              (dwconv): DWConv(
                (dwconv): Conv2d(1280, 1280, kernel_size=(3, 3), stride=(1, 1), padding=(1, 1), groups=1280)
              )
              (act): GELU()
              (fc2): Linear(in_features=1280, out_features=320, bias=True)
              (drop): Dropout(p=0.0, inplace=False)
            )
            (drop_path): DropPath()
          )
          (13): Block(
            (norm1): LayerNorm((320,), eps=1e-06, elementwise_affine=True)
            (attn): Attention(
              (q): Linear(in_features=320, out_features=320, bias=True)
              (sr): Conv2d(320, 320, kernel_size=(2, 2), stride=(2, 2))
              (norm): LayerNorm((320,), eps=1e-05, elementwise_affine=True)
              (kv): Linear(in_features=320, out_features=640, bias=True)
              (attn_drop): Dropout(p=0.0, inplace=False)
              (proj): Linear(in_features=320, out_features=320, bias=True)
              (proj_drop): Dropout(p=0.0, inplace=False)
            )
            (norm2): LayerNorm((320,), eps=1e-06, elementwise_affine=True)
            (mlp): Mlp(
              (fc1): Linear(in_features=320, out_features=1280, bias=True)
              (dwconv): DWConv(
                (dwconv): Conv2d(1280, 1280, kernel_size=(3, 3), stride=(1, 1), padding=(1, 1), groups=1280)
              )
              (act): GELU()
              (fc2): Linear(in_features=1280, out_features=320, bias=True)
              (drop): Dropout(p=0.0, inplace=False)
            )
            (drop_path): DropPath()
          )
          (14): Block(
            (norm1): LayerNorm((320,), eps=1e-06, elementwise_affine=True)
            (attn): Attention(
              (q): Linear(in_features=320, out_features=320, bias=True)
              (sr): Conv2d(320, 320, kernel_size=(2, 2), stride=(2, 2))
              (norm): LayerNorm((320,), eps=1e-05, elementwise_affine=True)
              (kv): Linear(in_features=320, out_features=640, bias=True)
              (attn_drop): Dropout(p=0.0, inplace=False)
              (proj): Linear(in_features=320, out_features=320, bias=True)
              (proj_drop): Dropout(p=0.0, inplace=False)
            )
            (norm2): LayerNorm((320,), eps=1e-06, elementwise_affine=True)
            (mlp): Mlp(
              (fc1): Linear(in_features=320, out_features=1280, bias=True)
              (dwconv): DWConv(
                (dwconv): Conv2d(1280, 1280, kernel_size=(3, 3), stride=(1, 1), padding=(1, 1), groups=1280)
              )
              (act): GELU()
              (fc2): Linear(in_features=1280, out_features=320, bias=True)
              (drop): Dropout(p=0.0, inplace=False)
            )
            (drop_path): DropPath()
          )
          (15): Block(
            (norm1): LayerNorm((320,), eps=1e-06, elementwise_affine=True)
            (attn): Attention(
              (q): Linear(in_features=320, out_features=320, bias=True)
              (sr): Conv2d(320, 320, kernel_size=(2, 2), stride=(2, 2))
              (norm): LayerNorm((320,), eps=1e-05, elementwise_affine=True)
              (kv): Linear(in_features=320, out_features=640, bias=True)
              (attn_drop): Dropout(p=0.0, inplace=False)
              (proj): Linear(in_features=320, out_features=320, bias=True)
              (proj_drop): Dropout(p=0.0, inplace=False)
            )
            (norm2): LayerNorm((320,), eps=1e-06, elementwise_affine=True)
            (mlp): Mlp(
              (fc1): Linear(in_features=320, out_features=1280, bias=True)
              (dwconv): DWConv(
                (dwconv): Conv2d(1280, 1280, kernel_size=(3, 3), stride=(1, 1), padding=(1, 1), groups=1280)
              )
              (act): GELU()
              (fc2): Linear(in_features=1280, out_features=320, bias=True)
              (drop): Dropout(p=0.0, inplace=False)
            )
            (drop_path): DropPath()
          )
          (16): Block(
            (norm1): LayerNorm((320,), eps=1e-06, elementwise_affine=True)
            (attn): Attention(
              (q): Linear(in_features=320, out_features=320, bias=True)
              (sr): Conv2d(320, 320, kernel_size=(2, 2), stride=(2, 2))
              (norm): LayerNorm((320,), eps=1e-05, elementwise_affine=True)
              (kv): Linear(in_features=320, out_features=640, bias=True)
              (attn_drop): Dropout(p=0.0, inplace=False)
              (proj): Linear(in_features=320, out_features=320, bias=True)
              (proj_drop): Dropout(p=0.0, inplace=False)
            )
            (norm2): LayerNorm((320,), eps=1e-06, elementwise_affine=True)
            (mlp): Mlp(
              (fc1): Linear(in_features=320, out_features=1280, bias=True)
              (dwconv): DWConv(
                (dwconv): Conv2d(1280, 1280, kernel_size=(3, 3), stride=(1, 1), padding=(1, 1), groups=1280)
              )
              (act): GELU()
              (fc2): Linear(in_features=1280, out_features=320, bias=True)
              (drop): Dropout(p=0.0, inplace=False)
            )
            (drop_path): DropPath()
          )
          (17): Block(
            (norm1): LayerNorm((320,), eps=1e-06, elementwise_affine=True)
            (attn): Attention(
              (q): Linear(in_features=320, out_features=320, bias=True)
              (sr): Conv2d(320, 320, kernel_size=(2, 2), stride=(2, 2))
              (norm): LayerNorm((320,), eps=1e-05, elementwise_affine=True)
              (kv): Linear(in_features=320, out_features=640, bias=True)
              (attn_drop): Dropout(p=0.0, inplace=False)
              (proj): Linear(in_features=320, out_features=320, bias=True)
              (proj_drop): Dropout(p=0.0, inplace=False)
            )
            (norm2): LayerNorm((320,), eps=1e-06, elementwise_affine=True)
            (mlp): Mlp(
              (fc1): Linear(in_features=320, out_features=1280, bias=True)
              (dwconv): DWConv(
                (dwconv): Conv2d(1280, 1280, kernel_size=(3, 3), stride=(1, 1), padding=(1, 1), groups=1280)
              )
              (act): GELU()
              (fc2): Linear(in_features=1280, out_features=320, bias=True)
              (drop): Dropout(p=0.0, inplace=False)
            )
            (drop_path): DropPath()
          )
          (18): Block(
            (norm1): LayerNorm((320,), eps=1e-06, elementwise_affine=True)
            (attn): Attention(
              (q): Linear(in_features=320, out_features=320, bias=True)
              (sr): Conv2d(320, 320, kernel_size=(2, 2), stride=(2, 2))
              (norm): LayerNorm((320,), eps=1e-05, elementwise_affine=True)
              (kv): Linear(in_features=320, out_features=640, bias=True)
              (attn_drop): Dropout(p=0.0, inplace=False)
              (proj): Linear(in_features=320, out_features=320, bias=True)
              (proj_drop): Dropout(p=0.0, inplace=False)
            )
            (norm2): LayerNorm((320,), eps=1e-06, elementwise_affine=True)
            (mlp): Mlp(
              (fc1): Linear(in_features=320, out_features=1280, bias=True)
              (dwconv): DWConv(
                (dwconv): Conv2d(1280, 1280, kernel_size=(3, 3), stride=(1, 1), padding=(1, 1), groups=1280)
              )
              (act): GELU()
              (fc2): Linear(in_features=1280, out_features=320, bias=True)
              (drop): Dropout(p=0.0, inplace=False)
            )
            (drop_path): DropPath()
          )
          (19): Block(
            (norm1): LayerNorm((320,), eps=1e-06, elementwise_affine=True)
            (attn): Attention(
              (q): Linear(in_features=320, out_features=320, bias=True)
              (sr): Conv2d(320, 320, kernel_size=(2, 2), stride=(2, 2))
              (norm): LayerNorm((320,), eps=1e-05, elementwise_affine=True)
              (kv): Linear(in_features=320, out_features=640, bias=True)
              (attn_drop): Dropout(p=0.0, inplace=False)
              (proj): Linear(in_features=320, out_features=320, bias=True)
              (proj_drop): Dropout(p=0.0, inplace=False)
            )
            (norm2): LayerNorm((320,), eps=1e-06, elementwise_affine=True)
            (mlp): Mlp(
              (fc1): Linear(in_features=320, out_features=1280, bias=True)
              (dwconv): DWConv(
                (dwconv): Conv2d(1280, 1280, kernel_size=(3, 3), stride=(1, 1), padding=(1, 1), groups=1280)
              )
              (act): GELU()
              (fc2): Linear(in_features=1280, out_features=320, bias=True)
              (drop): Dropout(p=0.0, inplace=False)
            )
            (drop_path): DropPath()
          )
          (20): Block(
            (norm1): LayerNorm((320,), eps=1e-06, elementwise_affine=True)
            (attn): Attention(
              (q): Linear(in_features=320, out_features=320, bias=True)
              (sr): Conv2d(320, 320, kernel_size=(2, 2), stride=(2, 2))
              (norm): LayerNorm((320,), eps=1e-05, elementwise_affine=True)
              (kv): Linear(in_features=320, out_features=640, bias=True)
              (attn_drop): Dropout(p=0.0, inplace=False)
              (proj): Linear(in_features=320, out_features=320, bias=True)
              (proj_drop): Dropout(p=0.0, inplace=False)
            )
            (norm2): LayerNorm((320,), eps=1e-06, elementwise_affine=True)
            (mlp): Mlp(
              (fc1): Linear(in_features=320, out_features=1280, bias=True)
              (dwconv): DWConv(
                (dwconv): Conv2d(1280, 1280, kernel_size=(3, 3), stride=(1, 1), padding=(1, 1), groups=1280)
              )
              (act): GELU()
              (fc2): Linear(in_features=1280, out_features=320, bias=True)
              (drop): Dropout(p=0.0, inplace=False)
            )
            (drop_path): DropPath()
          )
          (21): Block(
            (norm1): LayerNorm((320,), eps=1e-06, elementwise_affine=True)
            (attn): Attention(
              (q): Linear(in_features=320, out_features=320, bias=True)
              (sr): Conv2d(320, 320, kernel_size=(2, 2), stride=(2, 2))
              (norm): LayerNorm((320,), eps=1e-05, elementwise_affine=True)
              (kv): Linear(in_features=320, out_features=640, bias=True)
              (attn_drop): Dropout(p=0.0, inplace=False)
              (proj): Linear(in_features=320, out_features=320, bias=True)
              (proj_drop): Dropout(p=0.0, inplace=False)
            )
            (norm2): LayerNorm((320,), eps=1e-06, elementwise_affine=True)
            (mlp): Mlp(
              (fc1): Linear(in_features=320, out_features=1280, bias=True)
              (dwconv): DWConv(
                (dwconv): Conv2d(1280, 1280, kernel_size=(3, 3), stride=(1, 1), padding=(1, 1), groups=1280)
              )
              (act): GELU()
              (fc2): Linear(in_features=1280, out_features=320, bias=True)
              (drop): Dropout(p=0.0, inplace=False)
            )
            (drop_path): DropPath()
          )
          (22): Block(
            (norm1): LayerNorm((320,), eps=1e-06, elementwise_affine=True)
            (attn): Attention(
              (q): Linear(in_features=320, out_features=320, bias=True)
              (sr): Conv2d(320, 320, kernel_size=(2, 2), stride=(2, 2))
              (norm): LayerNorm((320,), eps=1e-05, elementwise_affine=True)
              (kv): Linear(in_features=320, out_features=640, bias=True)
              (attn_drop): Dropout(p=0.0, inplace=False)
              (proj): Linear(in_features=320, out_features=320, bias=True)
              (proj_drop): Dropout(p=0.0, inplace=False)
            )
            (norm2): LayerNorm((320,), eps=1e-06, elementwise_affine=True)
            (mlp): Mlp(
              (fc1): Linear(in_features=320, out_features=1280, bias=True)
              (dwconv): DWConv(
                (dwconv): Conv2d(1280, 1280, kernel_size=(3, 3), stride=(1, 1), padding=(1, 1), groups=1280)
              )
              (act): GELU()
              (fc2): Linear(in_features=1280, out_features=320, bias=True)
              (drop): Dropout(p=0.0, inplace=False)
            )
            (drop_path): DropPath()
          )
          (23): Block(
            (norm1): LayerNorm((320,), eps=1e-06, elementwise_affine=True)
            (attn): Attention(
              (q): Linear(in_features=320, out_features=320, bias=True)
              (sr): Conv2d(320, 320, kernel_size=(2, 2), stride=(2, 2))
              (norm): LayerNorm((320,), eps=1e-05, elementwise_affine=True)
              (kv): Linear(in_features=320, out_features=640, bias=True)
              (attn_drop): Dropout(p=0.0, inplace=False)
              (proj): Linear(in_features=320, out_features=320, bias=True)
              (proj_drop): Dropout(p=0.0, inplace=False)
            )
            (norm2): LayerNorm((320,), eps=1e-06, elementwise_affine=True)
            (mlp): Mlp(
              (fc1): Linear(in_features=320, out_features=1280, bias=True)
              (dwconv): DWConv(
                (dwconv): Conv2d(1280, 1280, kernel_size=(3, 3), stride=(1, 1), padding=(1, 1), groups=1280)
              )
              (act): GELU()
              (fc2): Linear(in_features=1280, out_features=320, bias=True)
              (drop): Dropout(p=0.0, inplace=False)
            )
            (drop_path): DropPath()
          )
          (24): Block(
            (norm1): LayerNorm((320,), eps=1e-06, elementwise_affine=True)
            (attn): Attention(
              (q): Linear(in_features=320, out_features=320, bias=True)
              (sr): Conv2d(320, 320, kernel_size=(2, 2), stride=(2, 2))
              (norm): LayerNorm((320,), eps=1e-05, elementwise_affine=True)
              (kv): Linear(in_features=320, out_features=640, bias=True)
              (attn_drop): Dropout(p=0.0, inplace=False)
              (proj): Linear(in_features=320, out_features=320, bias=True)
              (proj_drop): Dropout(p=0.0, inplace=False)
            )
            (norm2): LayerNorm((320,), eps=1e-06, elementwise_affine=True)
            (mlp): Mlp(
              (fc1): Linear(in_features=320, out_features=1280, bias=True)
              (dwconv): DWConv(
                (dwconv): Conv2d(1280, 1280, kernel_size=(3, 3), stride=(1, 1), padding=(1, 1), groups=1280)
              )
              (act): GELU()
              (fc2): Linear(in_features=1280, out_features=320, bias=True)
              (drop): Dropout(p=0.0, inplace=False)
            )
            (drop_path): DropPath()
          )
          (25): Block(
            (norm1): LayerNorm((320,), eps=1e-06, elementwise_affine=True)
            (attn): Attention(
              (q): Linear(in_features=320, out_features=320, bias=True)
              (sr): Conv2d(320, 320, kernel_size=(2, 2), stride=(2, 2))
              (norm): LayerNorm((320,), eps=1e-05, elementwise_affine=True)
              (kv): Linear(in_features=320, out_features=640, bias=True)
              (attn_drop): Dropout(p=0.0, inplace=False)
              (proj): Linear(in_features=320, out_features=320, bias=True)
              (proj_drop): Dropout(p=0.0, inplace=False)
            )
            (norm2): LayerNorm((320,), eps=1e-06, elementwise_affine=True)
            (mlp): Mlp(
              (fc1): Linear(in_features=320, out_features=1280, bias=True)
              (dwconv): DWConv(
                (dwconv): Conv2d(1280, 1280, kernel_size=(3, 3), stride=(1, 1), padding=(1, 1), groups=1280)
              )
              (act): GELU()
              (fc2): Linear(in_features=1280, out_features=320, bias=True)
              (drop): Dropout(p=0.0, inplace=False)
            )
            (drop_path): DropPath()
          )
          (26): Block(
            (norm1): LayerNorm((320,), eps=1e-06, elementwise_affine=True)
            (attn): Attention(
              (q): Linear(in_features=320, out_features=320, bias=True)
              (sr): Conv2d(320, 320, kernel_size=(2, 2), stride=(2, 2))
              (norm): LayerNorm((320,), eps=1e-05, elementwise_affine=True)
              (kv): Linear(in_features=320, out_features=640, bias=True)
              (attn_drop): Dropout(p=0.0, inplace=False)
              (proj): Linear(in_features=320, out_features=320, bias=True)
              (proj_drop): Dropout(p=0.0, inplace=False)
            )
            (norm2): LayerNorm((320,), eps=1e-06, elementwise_affine=True)
            (mlp): Mlp(
              (fc1): Linear(in_features=320, out_features=1280, bias=True)
              (dwconv): DWConv(
                (dwconv): Conv2d(1280, 1280, kernel_size=(3, 3), stride=(1, 1), padding=(1, 1), groups=1280)
              )
              (act): GELU()
              (fc2): Linear(in_features=1280, out_features=320, bias=True)
              (drop): Dropout(p=0.0, inplace=False)
            )
            (drop_path): DropPath()
          )
          (27): Block(
            (norm1): LayerNorm((320,), eps=1e-06, elementwise_affine=True)
            (attn): Attention(
              (q): Linear(in_features=320, out_features=320, bias=True)
              (sr): Conv2d(320, 320, kernel_size=(2, 2), stride=(2, 2))
              (norm): LayerNorm((320,), eps=1e-05, elementwise_affine=True)
              (kv): Linear(in_features=320, out_features=640, bias=True)
              (attn_drop): Dropout(p=0.0, inplace=False)
              (proj): Linear(in_features=320, out_features=320, bias=True)
              (proj_drop): Dropout(p=0.0, inplace=False)
            )
            (norm2): LayerNorm((320,), eps=1e-06, elementwise_affine=True)
            (mlp): Mlp(
              (fc1): Linear(in_features=320, out_features=1280, bias=True)
              (dwconv): DWConv(
                (dwconv): Conv2d(1280, 1280, kernel_size=(3, 3), stride=(1, 1), padding=(1, 1), groups=1280)
              )
              (act): GELU()
              (fc2): Linear(in_features=1280, out_features=320, bias=True)
              (drop): Dropout(p=0.0, inplace=False)
            )
            (drop_path): DropPath()
          )
          (28): Block(
            (norm1): LayerNorm((320,), eps=1e-06, elementwise_affine=True)
            (attn): Attention(
              (q): Linear(in_features=320, out_features=320, bias=True)
              (sr): Conv2d(320, 320, kernel_size=(2, 2), stride=(2, 2))
              (norm): LayerNorm((320,), eps=1e-05, elementwise_affine=True)
              (kv): Linear(in_features=320, out_features=640, bias=True)
              (attn_drop): Dropout(p=0.0, inplace=False)
              (proj): Linear(in_features=320, out_features=320, bias=True)
              (proj_drop): Dropout(p=0.0, inplace=False)
            )
            (norm2): LayerNorm((320,), eps=1e-06, elementwise_affine=True)
            (mlp): Mlp(
              (fc1): Linear(in_features=320, out_features=1280, bias=True)
              (dwconv): DWConv(
                (dwconv): Conv2d(1280, 1280, kernel_size=(3, 3), stride=(1, 1), padding=(1, 1), groups=1280)
              )
              (act): GELU()
              (fc2): Linear(in_features=1280, out_features=320, bias=True)
              (drop): Dropout(p=0.0, inplace=False)
            )
            (drop_path): DropPath()
          )
          (29): Block(
            (norm1): LayerNorm((320,), eps=1e-06, elementwise_affine=True)
            (attn): Attention(
              (q): Linear(in_features=320, out_features=320, bias=True)
              (sr): Conv2d(320, 320, kernel_size=(2, 2), stride=(2, 2))
              (norm): LayerNorm((320,), eps=1e-05, elementwise_affine=True)
              (kv): Linear(in_features=320, out_features=640, bias=True)
              (attn_drop): Dropout(p=0.0, inplace=False)
              (proj): Linear(in_features=320, out_features=320, bias=True)
              (proj_drop): Dropout(p=0.0, inplace=False)
            )
            (norm2): LayerNorm((320,), eps=1e-06, elementwise_affine=True)
            (mlp): Mlp(
              (fc1): Linear(in_features=320, out_features=1280, bias=True)
              (dwconv): DWConv(
                (dwconv): Conv2d(1280, 1280, kernel_size=(3, 3), stride=(1, 1), padding=(1, 1), groups=1280)
              )
              (act): GELU()
              (fc2): Linear(in_features=1280, out_features=320, bias=True)
              (drop): Dropout(p=0.0, inplace=False)
            )
            (drop_path): DropPath()
          )
          (30): Block(
            (norm1): LayerNorm((320,), eps=1e-06, elementwise_affine=True)
            (attn): Attention(
              (q): Linear(in_features=320, out_features=320, bias=True)
              (sr): Conv2d(320, 320, kernel_size=(2, 2), stride=(2, 2))
              (norm): LayerNorm((320,), eps=1e-05, elementwise_affine=True)
              (kv): Linear(in_features=320, out_features=640, bias=True)
              (attn_drop): Dropout(p=0.0, inplace=False)
              (proj): Linear(in_features=320, out_features=320, bias=True)
              (proj_drop): Dropout(p=0.0, inplace=False)
            )
            (norm2): LayerNorm((320,), eps=1e-06, elementwise_affine=True)
            (mlp): Mlp(
              (fc1): Linear(in_features=320, out_features=1280, bias=True)
              (dwconv): DWConv(
                (dwconv): Conv2d(1280, 1280, kernel_size=(3, 3), stride=(1, 1), padding=(1, 1), groups=1280)
              )
              (act): GELU()
              (fc2): Linear(in_features=1280, out_features=320, bias=True)
              (drop): Dropout(p=0.0, inplace=False)
            )
            (drop_path): DropPath()
          )
          (31): Block(
            (norm1): LayerNorm((320,), eps=1e-06, elementwise_affine=True)
            (attn): Attention(
              (q): Linear(in_features=320, out_features=320, bias=True)
              (sr): Conv2d(320, 320, kernel_size=(2, 2), stride=(2, 2))
              (norm): LayerNorm((320,), eps=1e-05, elementwise_affine=True)
              (kv): Linear(in_features=320, out_features=640, bias=True)
              (attn_drop): Dropout(p=0.0, inplace=False)
              (proj): Linear(in_features=320, out_features=320, bias=True)
              (proj_drop): Dropout(p=0.0, inplace=False)
            )
            (norm2): LayerNorm((320,), eps=1e-06, elementwise_affine=True)
            (mlp): Mlp(
              (fc1): Linear(in_features=320, out_features=1280, bias=True)
              (dwconv): DWConv(
                (dwconv): Conv2d(1280, 1280, kernel_size=(3, 3), stride=(1, 1), padding=(1, 1), groups=1280)
              )
              (act): GELU()
              (fc2): Linear(in_features=1280, out_features=320, bias=True)
              (drop): Dropout(p=0.0, inplace=False)
            )
            (drop_path): DropPath()
          )
          (32): Block(
            (norm1): LayerNorm((320,), eps=1e-06, elementwise_affine=True)
            (attn): Attention(
              (q): Linear(in_features=320, out_features=320, bias=True)
              (sr): Conv2d(320, 320, kernel_size=(2, 2), stride=(2, 2))
              (norm): LayerNorm((320,), eps=1e-05, elementwise_affine=True)
              (kv): Linear(in_features=320, out_features=640, bias=True)
              (attn_drop): Dropout(p=0.0, inplace=False)
              (proj): Linear(in_features=320, out_features=320, bias=True)
              (proj_drop): Dropout(p=0.0, inplace=False)
            )
            (norm2): LayerNorm((320,), eps=1e-06, elementwise_affine=True)
            (mlp): Mlp(
              (fc1): Linear(in_features=320, out_features=1280, bias=True)
              (dwconv): DWConv(
                (dwconv): Conv2d(1280, 1280, kernel_size=(3, 3), stride=(1, 1), padding=(1, 1), groups=1280)
              )
              (act): GELU()
              (fc2): Linear(in_features=1280, out_features=320, bias=True)
              (drop): Dropout(p=0.0, inplace=False)
            )
            (drop_path): DropPath()
          )
          (33): Block(
            (norm1): LayerNorm((320,), eps=1e-06, elementwise_affine=True)
            (attn): Attention(
              (q): Linear(in_features=320, out_features=320, bias=True)
              (sr): Conv2d(320, 320, kernel_size=(2, 2), stride=(2, 2))
              (norm): LayerNorm((320,), eps=1e-05, elementwise_affine=True)
              (kv): Linear(in_features=320, out_features=640, bias=True)
              (attn_drop): Dropout(p=0.0, inplace=False)
              (proj): Linear(in_features=320, out_features=320, bias=True)
              (proj_drop): Dropout(p=0.0, inplace=False)
            )
            (norm2): LayerNorm((320,), eps=1e-06, elementwise_affine=True)
            (mlp): Mlp(
              (fc1): Linear(in_features=320, out_features=1280, bias=True)
              (dwconv): DWConv(
                (dwconv): Conv2d(1280, 1280, kernel_size=(3, 3), stride=(1, 1), padding=(1, 1), groups=1280)
              )
              (act): GELU()
              (fc2): Linear(in_features=1280, out_features=320, bias=True)
              (drop): Dropout(p=0.0, inplace=False)
            )
            (drop_path): DropPath()
          )
          (34): Block(
            (norm1): LayerNorm((320,), eps=1e-06, elementwise_affine=True)
            (attn): Attention(
              (q): Linear(in_features=320, out_features=320, bias=True)
              (sr): Conv2d(320, 320, kernel_size=(2, 2), stride=(2, 2))
              (norm): LayerNorm((320,), eps=1e-05, elementwise_affine=True)
              (kv): Linear(in_features=320, out_features=640, bias=True)
              (attn_drop): Dropout(p=0.0, inplace=False)
              (proj): Linear(in_features=320, out_features=320, bias=True)
              (proj_drop): Dropout(p=0.0, inplace=False)
            )
            (norm2): LayerNorm((320,), eps=1e-06, elementwise_affine=True)
            (mlp): Mlp(
              (fc1): Linear(in_features=320, out_features=1280, bias=True)
              (dwconv): DWConv(
                (dwconv): Conv2d(1280, 1280, kernel_size=(3, 3), stride=(1, 1), padding=(1, 1), groups=1280)
              )
              (act): GELU()
              (fc2): Linear(in_features=1280, out_features=320, bias=True)
              (drop): Dropout(p=0.0, inplace=False)
            )
            (drop_path): DropPath()
          )
          (35): Block(
            (norm1): LayerNorm((320,), eps=1e-06, elementwise_affine=True)
            (attn): Attention(
              (q): Linear(in_features=320, out_features=320, bias=True)
              (sr): Conv2d(320, 320, kernel_size=(2, 2), stride=(2, 2))
              (norm): LayerNorm((320,), eps=1e-05, elementwise_affine=True)
              (kv): Linear(in_features=320, out_features=640, bias=True)
              (attn_drop): Dropout(p=0.0, inplace=False)
              (proj): Linear(in_features=320, out_features=320, bias=True)
              (proj_drop): Dropout(p=0.0, inplace=False)
            )
            (norm2): LayerNorm((320,), eps=1e-06, elementwise_affine=True)
            (mlp): Mlp(
              (fc1): Linear(in_features=320, out_features=1280, bias=True)
              (dwconv): DWConv(
                (dwconv): Conv2d(1280, 1280, kernel_size=(3, 3), stride=(1, 1), padding=(1, 1), groups=1280)
              )
              (act): GELU()
              (fc2): Linear(in_features=1280, out_features=320, bias=True)
              (drop): Dropout(p=0.0, inplace=False)
            )
            (drop_path): DropPath()
          )
          (36): Block(
            (norm1): LayerNorm((320,), eps=1e-06, elementwise_affine=True)
            (attn): Attention(
              (q): Linear(in_features=320, out_features=320, bias=True)
              (sr): Conv2d(320, 320, kernel_size=(2, 2), stride=(2, 2))
              (norm): LayerNorm((320,), eps=1e-05, elementwise_affine=True)
              (kv): Linear(in_features=320, out_features=640, bias=True)
              (attn_drop): Dropout(p=0.0, inplace=False)
              (proj): Linear(in_features=320, out_features=320, bias=True)
              (proj_drop): Dropout(p=0.0, inplace=False)
            )
            (norm2): LayerNorm((320,), eps=1e-06, elementwise_affine=True)
            (mlp): Mlp(
              (fc1): Linear(in_features=320, out_features=1280, bias=True)
              (dwconv): DWConv(
                (dwconv): Conv2d(1280, 1280, kernel_size=(3, 3), stride=(1, 1), padding=(1, 1), groups=1280)
              )
              (act): GELU()
              (fc2): Linear(in_features=1280, out_features=320, bias=True)
              (drop): Dropout(p=0.0, inplace=False)
            )
            (drop_path): DropPath()
          )
          (37): Block(
            (norm1): LayerNorm((320,), eps=1e-06, elementwise_affine=True)
            (attn): Attention(
              (q): Linear(in_features=320, out_features=320, bias=True)
              (sr): Conv2d(320, 320, kernel_size=(2, 2), stride=(2, 2))
              (norm): LayerNorm((320,), eps=1e-05, elementwise_affine=True)
              (kv): Linear(in_features=320, out_features=640, bias=True)
              (attn_drop): Dropout(p=0.0, inplace=False)
              (proj): Linear(in_features=320, out_features=320, bias=True)
              (proj_drop): Dropout(p=0.0, inplace=False)
            )
            (norm2): LayerNorm((320,), eps=1e-06, elementwise_affine=True)
            (mlp): Mlp(
              (fc1): Linear(in_features=320, out_features=1280, bias=True)
              (dwconv): DWConv(
                (dwconv): Conv2d(1280, 1280, kernel_size=(3, 3), stride=(1, 1), padding=(1, 1), groups=1280)
              )
              (act): GELU()
              (fc2): Linear(in_features=1280, out_features=320, bias=True)
              (drop): Dropout(p=0.0, inplace=False)
            )
            (drop_path): DropPath()
          )
          (38): Block(
            (norm1): LayerNorm((320,), eps=1e-06, elementwise_affine=True)
            (attn): Attention(
              (q): Linear(in_features=320, out_features=320, bias=True)
              (sr): Conv2d(320, 320, kernel_size=(2, 2), stride=(2, 2))
              (norm): LayerNorm((320,), eps=1e-05, elementwise_affine=True)
              (kv): Linear(in_features=320, out_features=640, bias=True)
              (attn_drop): Dropout(p=0.0, inplace=False)
              (proj): Linear(in_features=320, out_features=320, bias=True)
              (proj_drop): Dropout(p=0.0, inplace=False)
            )
            (norm2): LayerNorm((320,), eps=1e-06, elementwise_affine=True)
            (mlp): Mlp(
              (fc1): Linear(in_features=320, out_features=1280, bias=True)
              (dwconv): DWConv(
                (dwconv): Conv2d(1280, 1280, kernel_size=(3, 3), stride=(1, 1), padding=(1, 1), groups=1280)
              )
              (act): GELU()
              (fc2): Linear(in_features=1280, out_features=320, bias=True)
              (drop): Dropout(p=0.0, inplace=False)
            )
            (drop_path): DropPath()
          )
          (39): Block(
            (norm1): LayerNorm((320,), eps=1e-06, elementwise_affine=True)
            (attn): Attention(
              (q): Linear(in_features=320, out_features=320, bias=True)
              (sr): Conv2d(320, 320, kernel_size=(2, 2), stride=(2, 2))
              (norm): LayerNorm((320,), eps=1e-05, elementwise_affine=True)
              (kv): Linear(in_features=320, out_features=640, bias=True)
              (attn_drop): Dropout(p=0.0, inplace=False)
              (proj): Linear(in_features=320, out_features=320, bias=True)
              (proj_drop): Dropout(p=0.0, inplace=False)
            )
            (norm2): LayerNorm((320,), eps=1e-06, elementwise_affine=True)
            (mlp): Mlp(
              (fc1): Linear(in_features=320, out_features=1280, bias=True)
              (dwconv): DWConv(
                (dwconv): Conv2d(1280, 1280, kernel_size=(3, 3), stride=(1, 1), padding=(1, 1), groups=1280)
              )
              (act): GELU()
              (fc2): Linear(in_features=1280, out_features=320, bias=True)
              (drop): Dropout(p=0.0, inplace=False)
            )
            (drop_path): DropPath()
          )
        )
        (norm3): LayerNorm((320,), eps=1e-06, elementwise_affine=True)
        (patch_embed4): OverlapPatchEmbed(
          (proj): Conv2d(320, 512, kernel_size=(3, 3), stride=(2, 2), padding=(1, 1))
          (norm): LayerNorm((512,), eps=1e-05, elementwise_affine=True)
        )
        (block4): ModuleList(
          (0): Block(
            (norm1): LayerNorm((512,), eps=1e-06, elementwise_affine=True)
            (attn): Attention(
              (q): Linear(in_features=512, out_features=512, bias=True)
              (kv): Linear(in_features=512, out_features=1024, bias=True)
              (attn_drop): Dropout(p=0.0, inplace=False)
              (proj): Linear(in_features=512, out_features=512, bias=True)
              (proj_drop): Dropout(p=0.0, inplace=False)
            )
            (norm2): LayerNorm((512,), eps=1e-06, elementwise_affine=True)
            (mlp): Mlp(
              (fc1): Linear(in_features=512, out_features=2048, bias=True)
              (dwconv): DWConv(
                (dwconv): Conv2d(2048, 2048, kernel_size=(3, 3), stride=(1, 1), padding=(1, 1), groups=2048)
              )
              (act): GELU()
              (fc2): Linear(in_features=2048, out_features=512, bias=True)
              (drop): Dropout(p=0.0, inplace=False)
            )
            (drop_path): DropPath()
          )
          (1): Block(
            (norm1): LayerNorm((512,), eps=1e-06, elementwise_affine=True)
            (attn): Attention(
              (q): Linear(in_features=512, out_features=512, bias=True)
              (kv): Linear(in_features=512, out_features=1024, bias=True)
              (attn_drop): Dropout(p=0.0, inplace=False)
              (proj): Linear(in_features=512, out_features=512, bias=True)
              (proj_drop): Dropout(p=0.0, inplace=False)
            )
            (norm2): LayerNorm((512,), eps=1e-06, elementwise_affine=True)
            (mlp): Mlp(
              (fc1): Linear(in_features=512, out_features=2048, bias=True)
              (dwconv): DWConv(
                (dwconv): Conv2d(2048, 2048, kernel_size=(3, 3), stride=(1, 1), padding=(1, 1), groups=2048)
              )
              (act): GELU()
              (fc2): Linear(in_features=2048, out_features=512, bias=True)
              (drop): Dropout(p=0.0, inplace=False)
            )
            (drop_path): DropPath()
          )
          (2): Block(
            (norm1): LayerNorm((512,), eps=1e-06, elementwise_affine=True)
            (attn): Attention(
              (q): Linear(in_features=512, out_features=512, bias=True)
              (kv): Linear(in_features=512, out_features=1024, bias=True)
              (attn_drop): Dropout(p=0.0, inplace=False)
              (proj): Linear(in_features=512, out_features=512, bias=True)
              (proj_drop): Dropout(p=0.0, inplace=False)
            )
            (norm2): LayerNorm((512,), eps=1e-06, elementwise_affine=True)
            (mlp): Mlp(
              (fc1): Linear(in_features=512, out_features=2048, bias=True)
              (dwconv): DWConv(
                (dwconv): Conv2d(2048, 2048, kernel_size=(3, 3), stride=(1, 1), padding=(1, 1), groups=2048)
              )
              (act): GELU()
              (fc2): Linear(in_features=2048, out_features=512, bias=True)
              (drop): Dropout(p=0.0, inplace=False)
            )
            (drop_path): DropPath()
          )
        )
        (norm4): LayerNorm((512,), eps=1e-06, elementwise_affine=True)
        (conv1): Conv2d(64, 256, kernel_size=(1, 1), stride=(1, 1))
        (conv2): Conv2d(128, 256, kernel_size=(1, 1), stride=(1, 1))
        (conv3): Conv2d(320, 256, kernel_size=(1, 1), stride=(1, 1))
        (conv4): Conv2d(512, 256, kernel_size=(1, 1), stride=(1, 1))
      )
      (decode_head): SegFormerHead(
        (linear_c4): MLP(
          (proj): Linear(in_features=512, out_features=768, bias=True)
        )
        (linear_c3): MLP(
          (proj): Linear(in_features=320, out_features=768, bias=True)
        )
        (linear_c2): MLP(
          (proj): Linear(in_features=128, out_features=768, bias=True)
        )
        (linear_c1): MLP(
          (proj): Linear(in_features=64, out_features=768, bias=True)
        )
        (linear_fuse): ConvModule(
          (conv): Conv2d(3072, 768, kernel_size=(1, 1), stride=(1, 1), bias=False)
          (bn): BatchNorm2d(768, eps=0.001, momentum=0.03, affine=True, track_running_stats=True)
          (act): ReLU()
        )
        (linear_pred): Conv2d(768, 2, kernel_size=(1, 1), stride=(1, 1))
        (dropout): Dropout2d(p=0.1, inplace=False)
      )
      (convinput): Conv2d(1, 4, kernel_size=(1, 1), stride=(1, 1))
      (convout): Conv2d(2, 256, kernel_size=(1, 1), stride=(1, 1))
    )
    (decoder): Decoder(
      (res0): ResidualBlock(
        (model): Sequential(
          (0): ConvolutionBlock(
            (pad): ReflectionPad2d((1, 1, 1, 1))
            (conv): Conv2d(256, 256, kernel_size=(3, 3), stride=(1, 1))
            (norm): InstanceNorm2d(256, eps=1e-05, momentum=0.1, affine=False, track_running_stats=False)
            (activ): LeakyReLU(negative_slope=0.2)
          )
          (1): ConvolutionBlock(
            (pad): ReflectionPad2d((1, 1, 1, 1))
            (conv): Conv2d(256, 256, kernel_size=(3, 3), stride=(1, 1))
            (norm): InstanceNorm2d(256, eps=1e-05, momentum=0.1, affine=False, track_running_stats=False)
          )
        )
      )
      (res1): ResidualBlock(
        (model): Sequential(
          (0): ConvolutionBlock(
            (pad): ReflectionPad2d((1, 1, 1, 1))
            (conv): Conv2d(256, 256, kernel_size=(3, 3), stride=(1, 1))
            (norm): InstanceNorm2d(256, eps=1e-05, momentum=0.1, affine=False, track_running_stats=False)
            (activ): LeakyReLU(negative_slope=0.2)
          )
          (1): ConvolutionBlock(
            (pad): ReflectionPad2d((1, 1, 1, 1))
            (conv): Conv2d(256, 256, kernel_size=(3, 3), stride=(1, 1))
            (norm): InstanceNorm2d(256, eps=1e-05, momentum=0.1, affine=False, track_running_stats=False)
          )
        )
      )
      (res2): ResidualBlock(
        (model): Sequential(
          (0): ConvolutionBlock(
            (pad): ReflectionPad2d((1, 1, 1, 1))
            (conv): Conv2d(256, 256, kernel_size=(3, 3), stride=(1, 1))
            (norm): InstanceNorm2d(256, eps=1e-05, momentum=0.1, affine=False, track_running_stats=False)
            (activ): LeakyReLU(negative_slope=0.2)
          )
          (1): ConvolutionBlock(
            (pad): ReflectionPad2d((1, 1, 1, 1))
            (conv): Conv2d(256, 256, kernel_size=(3, 3), stride=(1, 1))
            (norm): InstanceNorm2d(256, eps=1e-05, momentum=0.1, affine=False, track_running_stats=False)
          )
        )
      )
      (res3): ResidualBlock(
        (model): Sequential(
          (0): ConvolutionBlock(
            (pad): ReflectionPad2d((1, 1, 1, 1))
            (conv): Conv2d(256, 256, kernel_size=(3, 3), stride=(1, 1))
            (norm): InstanceNorm2d(256, eps=1e-05, momentum=0.1, affine=False, track_running_stats=False)
            (activ): LeakyReLU(negative_slope=0.2)
          )
          (1): ConvolutionBlock(
            (pad): ReflectionPad2d((1, 1, 1, 1))
            (conv): Conv2d(256, 256, kernel_size=(3, 3), stride=(1, 1))
            (norm): InstanceNorm2d(256, eps=1e-05, momentum=0.1, affine=False, track_running_stats=False)
          )
        )
      )
      (conv0): Sequential(
        (0): Upsample(scale_factor=2.0, mode=nearest)
        (1): ConvolutionBlock(
          (pad): ReflectionPad2d((2, 2, 2, 2))
          (conv): Conv2d(256, 128, kernel_size=(5, 5), stride=(1, 1))
          (norm): LayerNorm()
          (activ): LeakyReLU(negative_slope=0.2)
        )
      )
      (conv1): Sequential(
        (0): Upsample(scale_factor=2.0, mode=nearest)
        (1): ConvolutionBlock(
          (pad): ReflectionPad2d((2, 2, 2, 2))
          (conv): Conv2d(128, 64, kernel_size=(5, 5), stride=(1, 1))
          (norm): LayerNorm()
          (activ): LeakyReLU(negative_slope=0.2)
        )
      )
      (conv2): ConvolutionBlock(
        (pad): ReflectionPad2d((3, 3, 3, 3))
        (conv): Conv2d(64, 1, kernel_size=(7, 7), stride=(1, 1))
        (activ): Tanh()
      )
      (fuse0): Conv2d(512, 256, kernel_size=(1, 1), stride=(1, 1))
      (fuse1): Conv2d(256, 128, kernel_size=(1, 1), stride=(1, 1))
      (fuse2): Conv2d(128, 64, kernel_size=(1, 1), stride=(1, 1))
    )
    (decoder_art): Decoder(
      (res0): ResidualBlock(
        (model): Sequential(
          (0): ConvolutionBlock(
            (pad): ReflectionPad2d((1, 1, 1, 1))
            (conv): Conv2d(256, 256, kernel_size=(3, 3), stride=(1, 1))
            (norm): InstanceNorm2d(256, eps=1e-05, momentum=0.1, affine=False, track_running_stats=False)
            (activ): LeakyReLU(negative_slope=0.2)
          )
          (1): ConvolutionBlock(
            (pad): ReflectionPad2d((1, 1, 1, 1))
            (conv): Conv2d(256, 256, kernel_size=(3, 3), stride=(1, 1))
            (norm): InstanceNorm2d(256, eps=1e-05, momentum=0.1, affine=False, track_running_stats=False)
          )
        )
      )
      (res1): ResidualBlock(
        (model): Sequential(
          (0): ConvolutionBlock(
            (pad): ReflectionPad2d((1, 1, 1, 1))
            (conv): Conv2d(256, 256, kernel_size=(3, 3), stride=(1, 1))
            (norm): InstanceNorm2d(256, eps=1e-05, momentum=0.1, affine=False, track_running_stats=False)
            (activ): LeakyReLU(negative_slope=0.2)
          )
          (1): ConvolutionBlock(
            (pad): ReflectionPad2d((1, 1, 1, 1))
            (conv): Conv2d(256, 256, kernel_size=(3, 3), stride=(1, 1))
            (norm): InstanceNorm2d(256, eps=1e-05, momentum=0.1, affine=False, track_running_stats=False)
          )
        )
      )
      (res2): ResidualBlock(
        (model): Sequential(
          (0): ConvolutionBlock(
            (pad): ReflectionPad2d((1, 1, 1, 1))
            (conv): Conv2d(256, 256, kernel_size=(3, 3), stride=(1, 1))
            (norm): InstanceNorm2d(256, eps=1e-05, momentum=0.1, affine=False, track_running_stats=False)
            (activ): LeakyReLU(negative_slope=0.2)
          )
          (1): ConvolutionBlock(
            (pad): ReflectionPad2d((1, 1, 1, 1))
            (conv): Conv2d(256, 256, kernel_size=(3, 3), stride=(1, 1))
            (norm): InstanceNorm2d(256, eps=1e-05, momentum=0.1, affine=False, track_running_stats=False)
          )
        )
      )
      (res3): ResidualBlock(
        (model): Sequential(
          (0): ConvolutionBlock(
            (pad): ReflectionPad2d((1, 1, 1, 1))
            (conv): Conv2d(256, 256, kernel_size=(3, 3), stride=(1, 1))
            (norm): InstanceNorm2d(256, eps=1e-05, momentum=0.1, affine=False, track_running_stats=False)
            (activ): LeakyReLU(negative_slope=0.2)
          )
          (1): ConvolutionBlock(
            (pad): ReflectionPad2d((1, 1, 1, 1))
            (conv): Conv2d(256, 256, kernel_size=(3, 3), stride=(1, 1))
            (norm): InstanceNorm2d(256, eps=1e-05, momentum=0.1, affine=False, track_running_stats=False)
          )
        )
      )
      (conv0): Sequential(
        (0): Upsample(scale_factor=2.0, mode=nearest)
        (1): ConvolutionBlock(
          (pad): ReflectionPad2d((2, 2, 2, 2))
          (conv): Conv2d(256, 128, kernel_size=(5, 5), stride=(1, 1))
          (norm): LayerNorm()
          (activ): LeakyReLU(negative_slope=0.2)
        )
      )
      (conv1): Sequential(
        (0): Upsample(scale_factor=2.0, mode=nearest)
        (1): ConvolutionBlock(
          (pad): ReflectionPad2d((2, 2, 2, 2))
          (conv): Conv2d(128, 64, kernel_size=(5, 5), stride=(1, 1))
          (norm): LayerNorm()
          (activ): LeakyReLU(negative_slope=0.2)
        )
      )
      (conv2): ConvolutionBlock(
        (pad): ReflectionPad2d((3, 3, 3, 3))
        (conv): Conv2d(64, 1, kernel_size=(7, 7), stride=(1, 1))
        (activ): Tanh()
      )
      (fuse0): Conv2d(512, 256, kernel_size=(1, 1), stride=(1, 1))
      (fuse1): Conv2d(256, 128, kernel_size=(1, 1), stride=(1, 1))
      (fuse2): Conv2d(128, 64, kernel_size=(1, 1), stride=(1, 1))
    )
  )
  (model_dl): NLayerDiscriminator(
    (model): Sequential(
      (0): Conv2d(1, 64, kernel_size=(4, 4), stride=(2, 2), padding=(1, 1))
      (1): LeakyReLU(negative_slope=0.2, inplace=True)
      (2): Conv2d(64, 128, kernel_size=(4, 4), stride=(2, 2), padding=(1, 1))
      (3): InstanceNorm2d(128, eps=1e-05, momentum=0.1, affine=False, track_running_stats=False)
      (4): LeakyReLU(negative_slope=0.2, inplace=True)
      (5): Conv2d(128, 256, kernel_size=(4, 4), stride=(1, 1), padding=(1, 1))
      (6): InstanceNorm2d(256, eps=1e-05, momentum=0.1, affine=False, track_running_stats=False)
      (7): LeakyReLU(negative_slope=0.2, inplace=True)
      (8): Conv2d(256, 1, kernel_size=(4, 4), stride=(1, 1), padding=(1, 1))
    )
  )
  (model_dh): NLayerDiscriminator(
    (model): Sequential(
      (0): Conv2d(1, 64, kernel_size=(4, 4), stride=(2, 2), padding=(1, 1))
      (1): LeakyReLU(negative_slope=0.2, inplace=True)
      (2): Conv2d(64, 128, kernel_size=(4, 4), stride=(2, 2), padding=(1, 1))
      (3): InstanceNorm2d(128, eps=1e-05, momentum=0.1, affine=False, track_running_stats=False)
      (4): LeakyReLU(negative_slope=0.2, inplace=True)
      (5): Conv2d(128, 256, kernel_size=(4, 4), stride=(1, 1), padding=(1, 1))
      (6): InstanceNorm2d(256, eps=1e-05, momentum=0.1, affine=False, track_running_stats=False)
      (7): LeakyReLU(negative_slope=0.2, inplace=True)
      (8): Conv2d(256, 1, kernel_size=(4, 4), stride=(1, 1), padding=(1, 1))
    )
  )
)
